Models/CartPole-v1/modelDesperate.pt (torch, 24181 bytes, 14 tensors)

predictionFunction.startBlock.0.weight f4 [32, 32]
0	0xbdd5b413	-0.10434737
1	0x3e30299b	0.17203371
2	0xbd53f6fa	-0.051749207
3	0xbe579e37	-0.21056448
4	0x3c1c047a	0.009522552
5	0xbd883b73	-0.06651964
6	0xbdc79a1b	-0.0974619
7	0x3e1e30b6	0.15448269
8	0xbdc75706	-0.09733395
9	0x3c332278	0.010933511
10	0xbe0fdea9	-0.14049782
11	0x3c98047a	0.018556822
12	0xbe8bd96f	-0.27314326
13	0xbdf6b31d	-0.12045882
14	0xbd8d12d0	-0.06888354
15	0xbd77fd47	-0.06054428
16	0xbdd5dfc0	-0.104430676
17	0x3deeeffb	0.116668664
18	0xbe4b1bd3	-0.19834833
19	0xbd354e80	-0.044264317
20	0x3e8eb3f2	0.27871662
21	0x3e2b7be7	0.16746484
22	0x3dcf983b	0.101364575
23	0x3e5e0275	0.21680625
24	0x3d1c5836	0.038170062
25	0x3d946c9a	0.072472766
26	0x3e177cb2	0.14793661
27	0xbdc45207	-0.09585958
28	0xbd256df6	-0.04038807
29	0xbd9705cf	-0.07374155
30	0xbd12992e	-0.035790615
31	0x3e1f1766	0.1553627
32	0xbd645ecf	-0.05575448
33	0xbcf88144	-0.030335076
34	0xbd749acc	-0.05971794
35	0xbe1acfc5	-0.1511832
36	0xbd325e62	-0.04354704
37	0x3e349a0c	0.17636889
38	0x3d3126ca	0.043249883
39	0x3d3549e9	0.04425994
40	0x3cf4493e	0.02982008
41	0xbda11356	-0.07865016
42	0x3d616bfe	0.05503463
43	0xbe0ba3c7	-0.13636695
44	0xbde9ab3f	-0.11409616
45	0xbd6fb204	-0.05851938
46	0x3e242921	0.16031314
47	0x3e414f84	0.18877989
48	0xbe12a49e	-0.14320609
49	0xbcfc5454	-0.03080193
50	0x3e34ee5d	0.17669053
51	0x3e49fb1d	0.19724698
52	0x3ca7e7f0	0.020496339
53	0xbd123527	-0.03569522
54	0x3d83c020	0.06433129
55	0xbe1ccdc4	-0.15312868
56	0x3d8f449b	0.06995507
57	0xbdab5daa	-0.083674744
58	0xbdb0ac3b	-0.086266
59	0xbddde8fa	-0.108354524
60	0x3d89f3b2	0.06735934
61	0x3aeac720	0.0017912127
62	0xbd807df6	-0.06274025
63	0x3d9bf97c	0.07615945
64	0x3d43709d	0.04771482
65	0xbe38b100	-0.1803627
66	0x3d2dffea	0.042480387
67	0x3db603e9	0.088874646
68	0x3e8a8aa2	0.27058893
69	0x3ee04661	0.43803695
70	0xbc3612d1	-0.011112885
71	0xbde8789c	-0.113511294
72	0xbdc25a1b	-0.094898425
73	0x3dc731ec	0.09726319
74	0x3e564120	0.2092328
75	0x3c954846	0.01822294
76	0xbd05b580	-0.032643795
77	0x399cbf42	0.00029897137
78	0x3db65f94	0.08904949
79	0x3d2ae0ba	0.041718222
80	0xbe80662d	-0.25077954
81	0x3e3c9186	0.18414888
82	0xbbe0ac87	-0.0068565044
83	0xbe371eba	-0.17882815
84	0x3d6ec16b	0.058289926
85	0xbc930424	-0.01794631
86	0x3da621aa	0.0811189
87	0xbe09aeb3	-0.13445549
88	0xbde11464	-0.10990217
89	0xbdbca611	-0.09211362
90	0x3d309cb9	0.043118212
91	0x3d527b1a	0.05138693
92	0x3ebfc02f	0.37451312
93	0x3e8bff32	0.27343136
94	0xbeaf6fc3	-0.34264955
95	0xbe19766d	-0.14986582
96	0x3d0cf8aa	0.034416832
97	0x3d9f0164	0.07763937
98	0xbe5cce0b	-0.21562974
99	0xbdf9be4b	-0.12194499
100	0x3e638409	0.22218336
101	0xbc7344d5	-0.014847954
102	0xbe71f548	-0.23628724
103	0x3d1a6389	0.03769258
104	0xbe57bf2b	-0.21069019
105	0xbd8be4d2	-0.068307534
106	0xbe41ffa1	-0.18945171
107	0xbe2ea447	-0.17054854
108	0xbcdfd68c	-0.027323984
109	0x3bb22d33	0.005437517
110	0xbe03382f	-0.12814401
111	0x3e55e590	0.20888352
112	0xbda86c6d	-0.082238056
113	0x3e5b8f4f	0.21441387
114	0xbd5f7570	-0.054555357
115	0xbe6229e8	-0.22086298
116	0x3d6be10c	0.05758767
117	0x3d957fa6	0.07299738
118	0x3dea7744	0.11448529
119	0x3e021555	0.1270345
120	0x3e540e22	0.20708516
121	0xbd7334c0	-0.05937648
122	0xbe04a956	-0.12955222
123	0x3dce91d9	0.10086412
124	0xbe2e511a	-0.17023125
125	0xbd870197	-0.065921
126	0x3c8f6feb	0.017509421
127	0xbe199f10	-0.15002084
128	0x3e830936	0.25592965
129	0xbd5eef07	-0.054427173
130	0x3e1e0145	0.15430172
131	0x3eb3657c	0.35038364
132	0xbe0290d3	-0.12750559
133	0xbe8b0185	-0.27149597
134	0x3f339024	0.70141816
135	0xbe250a55	-0.16117223
136	0xbe943c19	-0.289521
137	0xbe0c6cb0	-0.13713336
138	0x3de1d61a	0.11027165
139	0xbdaab8d3	-0.08336034
140	0xbc1d4ffc	-0.009601589
141	0x3db9754e	0.09055577
142	0x3e644015	0.2229007
143	0x3d9e97c5	0.077437915
144	0xbe974b5b	-0.2954968
145	0xbe58ca0f	-0.21170829
146	0x3dbabce4	0.09118059
147	0x3c075555	0.008260091
148	0xbe875ca1	-0.26437858
149	0xbeb0f85a	-0.34564477
150	0xbea9a43a	-0.33133107
151	0xbee6aca8	-0.450536
152	0xbe99330b	-0.29921755
153	0xbdda4321	-0.10657335
154	0x3daf26ab	0.08552297
155	0x3d19ef63	0.037581813
156	0x3e34bb1d	0.17649503
157	0xbe504bde	-0.20341441
158	0xbc72b688	-0.014814027
159	0x3c94a58e	0.018145349
160	0x3d46a42d	0.048496414
161	0x3e33169c	0.17489094
162	0xbdf451f6	-0.11929695
163	0xbe602dc9	-0.21892466
164	0x3e598444	0.21241862
165	0x3ceafcd4	0.028685011
166	0xbe229a15	-0.1587909
167	0x3d96c591	0.073619016
168	0xbe23154d	-0.15926094
169	0xbb902c1c	-0.0043997895
170	0x3defca61	0.117085226
171	0x3e5ca689	0.21547903
172	0x3e932798	0.28741145
173	0x3d3c5d63	0.045987498
174	0xbe2b3cda	-0.16722432
175	0x3f09a21a	0.5376297
176	0x3c937b13	0.018003022
177	0xbd427b45	-0.04748084
178	0xbe83d873	-0.25751075
179	0xbe231962	-0.15927652
180	0x3e5f2abb	0.21793644
181	0xbd853d3c	-0.0650582
182	0x3e888905	0.26667038
183	0x3d8813a1	0.06644369
184	0xbd597681	-0.05309153
185	0x3de74165	0.1129177
186	0xbdb37940	-0.08763361
187	0x3e96134f	0.29311606
188	0xbe131b7a	-0.1436595
189	0x3e0cd0df	0.13751553
190	0x3c6735d0	0.014111951
191	0x3e6075bc	0.21919912
192	0xbe0ac85c	-0.13552994
193	0x3da8d626	0.082439706
194	0xbdf791f3	-0.120883845
195	0xbe2dc97f	-0.16971396
196	0xbd8552ad	-0.0650991
197	0xbc46ae3b	-0.012126501
198	0xbea78e8e	-0.32725948
199	0x3d337319	0.043810938
200	0x3d277ad7	0.040888634
201	0x3e372d4b	0.17888372
202	0xbe0c37f3	-0.13693218
203	0xbd9ad9d7	-0.07561081
204	0xbd9f26f7	-0.07771104
205	0x3dfe19df	0.12407278
206	0xbdad4760	-0.08460879
207	0x3e2126be	0.15737435
208	0x3ddacdf6	0.10683815
209	0x3d6da885	0.05802204
210	0xbe1403bc	-0.1445455
211	0xbd903247	-0.0704084
212	0x3e2168df	0.15762661
213	0xbbc157a4	-0.00590034
214	0x3e2432f2	0.16035059
215	0x3da76a97	0.08174627
216	0x3cfa7f22	0.0305782
217	0xbdb6cc8e	-0.089257345
218	0x3e41f01d	0.18939252
219	0xbdc8ac94	-0.09798542
220	0xbe339c35	-0.17540057
221	0x3e343b62	0.17600778
222	0x3d06dc00	0.032924652
223	0xbd2f0dcc	-0.042737767
224	0xbe655ec8	-0.22399437
225	0x3e3dadee	0.1852338
226	0xbdaba935	-0.08381883
227	0xbe1a4aa9	-0.15067543
228	0x3d06653d	0.032811392
229	0x3d04b2c6	0.032397054
230	0xbe6fbe42	-0.23412421
231	0x3e19e8c5	0.15030201
232	0xbc940a06	-0.018071186
233	0x3d528336	0.051394664
234	0x3d168d96	0.03675612
235	0xbd12598e	-0.035729937
236	0x3dbda7bd	0.09260509
237	0xbe0752bb	-0.13215153
238	0xbd2d292a	-0.042275585
239	0x3e9d2cf9	0.30698374
240	0xbd06f99f	-0.0329529
241	0x3e14054a	0.14455143
242	0xbeeed39c	-0.4664582
243	0xbbc89540	-0.0061213076
244	0x3ee69b0e	0.45040172
245	0xbe5554c1	-0.20833112
246	0x3e90a5d5	0.2825152
247	0xbde64e89	-0.11245448
248	0x3e81f26a	0.2538026
249	0xbcc61215	-0.024178544
250	0xbdd3cebc	-0.10342166
251	0x3e1edb88	0.15513432
252	0x3e6aa9cb	0.22916333
253	0xbe151795	-0.14559777
254	0xbdaa8478	-0.08326048
255	0xbcae254e	-0.021258023

predictionFunction.startBlock.0.bias f4 [32]
0	0x3d393e25	0.04522528
1	0xbe7d8a25	-0.24759729
2	0xbe2e9f09	-0.17052855
3	0x3e0b1e67	0.13585816
4	0xbb67dd39	-0.0035379662
5	0x3e08fff1	0.13378884
6	0x3e54bdce	0.2077553
7	0x3d3afcf6	0.0456514
8	0x3e29fa2c	0.16599339
9	0x3de19587	0.11014848
10	0x3e43d9e8	0.19126093
11	0x3d05e729	0.032691155
12	0xbd6bcef8	-0.057570428
13	0x3cbe7cf7	0.023252947
14	0xbe2933cd	-0.16523667
15	0x3e2169dd	0.1576304
16	0xbd8bdc5f	-0.06829142
17	0x3df76100	0.12079048
18	0x3d0dcdbf	0.034620043
19	0xbdb6d65c	-0.089276046
20	0x3ddfc84e	0.10926877
21	0x3dfc8802	0.12330629
22	0x3e308691	0.17238833
23	0x3db310df	0.08743452
24	0xbe442239	-0.1915368
25	0x3da75360	0.081701994
26	0x3d500ef1	0.0507955
27	0x3de8512b	0.113436066
28	0x3da580d8	0.080812156
29	0x3cb64b0c	0.022252582
30	0xbd82a887	-0.063798
31	0x3c4f8a2a	0.012667218

predictionFunction.startBlock.2.weight f4 [32, 32]
0	0x3da178ab	0.07884344
1	0xbabcfff3	-0.001441954
2	0x3e8ee40e	0.27908367
3	0xbe6c2026	-0.23059139
4	0x3d5d6fa8	0.05406156
5	0x3e5ac954	0.21365863
6	0xbd6b30bf	-0.057419535
7	0x3e56b99e	0.20969245
8	0xbe6a5bf1	-0.22886635
9	0xbe482707	-0.19546138
10	0xbaed3bc4	-0.0018099477
11	0xbe025ac2	-0.12729934
12	0x3e6cf2ea	0.2313954
13	0x3ea30f5f	0.31847665
14	0x3ea7c89c	0.3277024
15	0x3d21e5bf	0.039525744
16	0x3eb02e1e	0.34410185
17	0xbd01f313	-0.031725954
18	0xbe14e4d7	-0.1454042
19	0x3e6145b9	0.21999253
20	0xbe199cba	-0.15001193
21	0x3dd7c3eb	0.10535415
22	0x3ef17eb3	0.47166976
23	0xbc8e357c	-0.017359488
24	0x3ecc4a25	0.39900318
25	0x3dc0fb24	0.09422901
26	0x3e78cadb	0.24296133
27	0x3e9e3aef	0.30904338
28	0x3d325f2a	0.043547787
29	0x3eb32ec5	0.3499662
30	0x3e7cbf53	0.2468236
31	0xbc20b080	-0.009807706
32	0x3d1a96df	0.037741538
33	0xbe02ec60	-0.12785482
34	0x3e61a1e6	0.22034416
35	0x3d661523	0.0561725
36	0xbebf0995	-0.37311998
37	0x3e83ec92	0.25766426
38	0xbd450772	-0.048102804
39	0x3d2351c1	0.03987289
40	0x3cc2b71a	0.02376895
41	0xbe55cdf5	-0.20879348
42	0x3dbfc25a	0.093632415
43	0xbcdd0397	-0.02697925
44	0x3ea2480c	0.31695592
45	0xbd52ee5c	-0.05149685
46	0x3e1beeec	0.1522786
47	0x3eac3da1	0.3364077
48	0xbdfadcf5	-0.122491755
49	0x3e8c35dd	0.27384844
50	0xbecc9213	-0.39955196
51	0x3e74d610	0.23909783
52	0x3e061f7d	0.1309795
53	0x3ea7cf18	0.32775187
54	0x3eb68976	0.3565175
55	0xbe802ca0	-0.25034046
56	0x3e86fa8e	0.26363033
57	0x3e880cdc	0.2657231
58	0x3a5d9c24	0.0008453748
59	0xbcb5eae6	-0.022206735
60	0x3c73ccc7	0.014880366
61	0x3dd32e95	0.10311619
62	0x3bb9ce56	0.005670349
63	0xbdd2cef7	-0.10293382
64	0xbd51f0ae	-0.05125492
65	0xbdeeac20	-0.11653924
66	0x3e2ea3a1	0.17054607
67	0x3c36808d	0.011139047
68	0xbd71a881	-0.05899859
69	0xbe87ec07	-0.26547262
70	0xbd163a5d	-0.036676753
71	0xbdba0feb	-0.09085067
72	0x3e269b7e	0.16270253
73	0xbab33176	-0.0013671357
74	0xbec96f1e	-0.39342588
75	0x3df36c7b	0.118859254
76	0x3db5171f	0.088423006
77	0x3e1d5c4c	0.1536724
78	0xbeb9ae0c	-0.362656
79	0x3dbada00	0.091236115
80	0x3de6acf3	0.11263456
81	0xbf007f78	-0.501945
82	0x3e74ce8b	0.23906915
83	0xbd556cb5	-0.052105624
84	0x3d96f59b	0.07371064
85	0x3e651dfb	0.22374718
86	0x3d1e2824	0.0386125
87	0x3d2de9a4	0.042459145
88	0xbe94ab62	-0.29037005
89	0xbe67e91c	-0.22647518
90	0xbe02f509	-0.12788786
91	0xbd6e829c	-0.058230028
92	0x3e589d6c	0.21153802
93	0xbe4b3efc	-0.19848245
94	0x3df43ac2	0.1192527
95	0x3e16d9b8	0.1473149
96	0xbc8467b8	-0.016162738
97	0xbd8fc736	-0.07020418
98	0x3c1deb5d	0.0096386345
99	0xbd3d0e66	-0.04615631
100	0xbda671d5	-0.081271805
101	0x3ea66aa7	0.32503244
102	0xbd174144	-0.036927477
103	0x3e368f95	0.1782821
104	0xbe6723ca	-0.22572246
105	0xbe4f4c61	-0.2024398
106	0x3f0df76d	0.55455667
107	0x3dc2f427	0.095192246
108	0x3ecfcf1f	0.40587708
109	0x3ea87fb2	0.32909924
110	0x3dfcdb5e	0.123465285
111	0x3df0f26d	0.11764989
112	0x3d061f00	0.032744408
113	0x3d9965fb	0.07490154
114	0xbea3b4e2	-0.3197394
115	0x3ee7a413	0.45242366
116	0xbdf7d635	-0.121014036
117	0x3c8eeaaf	0.01744589
118	0x3d881949	0.06645448
119	0x3dc25001	0.09487916
120	0x3ea48ff7	0.32141086
121	0x3e72c4fe	0.23707959
122	0x3ebd4bb6	0.36971825
123	0x3e59a53a	0.21254435
124	0x3e0d99f2	0.13828257
125	0xbca0738b	-0.019586345
126	0x3e9e1941	0.30878642
127	0xbeca6770	-0.39532042
128	0xbe24e9de	-0.16104838
129	0xbe22dfb7	-0.15905653
130	0x3d6c96ad	0.057760883
131	0x3e9a76e4	0.3016883
132	0x3ef5d8cc	0.48016965
133	0xbf216631	-0.63046557
134	0x3e42efdc	0.19036812
135	0x3c37c324	0.011215959
136	0x3e1d2a49	0.15348162
137	0x3edb9cde	0.42893118
138	0xbe8ec699	-0.27885893
139	0x3e3d6b28	0.18497908
140	0x3e5f7128	0.2182051
141	0xbeb1ef05	-0.3475267
142	0xbf1e86f7	-0.6192469
143	0x3e4039e1	0.18772079
144	0xbd91a3a7	-0.07111292
145	0x3e5903bf	0.21192835
146	0x3ebad884	0.36493313
147	0xbe781969	-0.24228443
148	0xbe51b914	-0.20480758
149	0x3e07aeda	0.13250294
150	0xbd5e24b0	-0.054234207
151	0x3e7ae216	0.24500307
152	0xbea8dc2d	-0.3298048
153	0xbd623f55	-0.05523618
154	0xbeb69305	-0.35659042
155	0xbcf68692	-0.030093465
156	0x3e828b0a	0.25496703
157	0xbeb41821	-0.3517466
158	0xbeaab53c	-0.33341396
159	0x3e4283bf	0.1899557
160	0x3d9ee5f0	0.07758701
161	0x3c38fe27	0.011291063
162	0xbe215f6f	-0.15759061
163	0x3dc21a2a	0.09477647
164	0xbcb22c16	-0.021749537
165	0x3de568f6	0.1120166
166	0xbcdfe6a9	-0.027331667
167	0x3d8cc361	0.06873203
168	0xbcc8a30b	-0.024491807
169	0xbdf2bc0a	-0.11852272
170	0x3e84a2ae	0.25905365
171	0xbda0ee16	-0.07857911
172	0x3eafb0d0	0.34314585
173	0x3daf9a52	0.08574356
174	0x3ec9039f	0.39260575
175	0x3e48fb99	0.19627227
176	0xbe2124e5	-0.1573673
177	0x3db67bbe	0.08910321
178	0xbdb97ec4	-0.09057382
179	0x3ea5d337	0.32387707
180	0x3d291f8b	0.041289847
181	0x3debcf38	0.11514133
182	0x3e010403	0.12599187
183	0xbcb71f4e	-0.022353794
184	0x3e931347	0.28725645
185	0x3e824d2c	0.25449502
186	0x3eb024d2	0.34403092
187	0x3db1443d	0.086555935
188	0xbd7b3bde	-0.06133639
189	0xbd09de6d	-0.033659387
190	0x3e24d6d0	0.1609757
191	0xbe6ec743	-0.233182
192	0x3e22953f	0.15877245
193	0xbdf6cc00	-0.12050629
194	0x3d61cc0f	0.055126246
195	0x3e49508a	0.1965963
196	0xbe02a8e1	-0.12759735
197	0xbd522025	-0.051300187
198	0x3da40eae	0.080106124
199	0x3db3ed97	0.08785551
200	0x3dd3b14e	0.103365526
201	0xbeba4c64	-0.36386406
202	0x3f078e94	0.5295193
203	0x3cb94271	0.02261469
204	0x3d8b5aa5	0.068043984
205	0x3e043192	0.12909535
206	0x3ef1158d	0.47086754
207	0xbd46463d	-0.04840683
208	0xbd5a450e	-0.053288512
209	0x3e669b3a	0.22520152
210	0xbe3cf699	-0.18453445
211	0x3f05b274	0.5222542
212	0x3e002e7e	0.12517735
213	0x3e7099de	0.23496196
214	0xbd78ff18	-0.06079015
215	0x3e8d5a94	0.27608168
216	0x3e4a09ce	0.19730303
217	0x3d7a466c	0.061102316
218	0x3e4673f3	0.19380169
219	0x3e18d1a7	0.14923726
220	0x3e335a59	0.17514934
221	0x3e9226df	0.2854528
222	0x3ebbcf32	0.36681515
223	0x3c54783f	0.012968122
224	0xbdf400aa	-0.11914189
225	0x3d6ba669	0.057531748
226	0x3d9ea12b	0.07745584
227	0x3de27290	0.11057007
228	0x3d7001e1	0.058595542
229	0xbe65af0c	-0.22430056
230	0x3cc05b3a	0.023481
231	0x3ea99fdd	0.33129779
232	0x3d90b5ee	0.0706595
233	0xbe3cdb16	-0.1844295
234	0x3cd16f51	0.025565775
235	0x3d39da73	0.045374345
236	0x3e94a99b	0.2903565
237	0xbe530eca	-0.2061111
238	0xbea81d9f	-0.328351
239	0xbde2797b	-0.11058327
240	0xbd1725f1	-0.036901418
241	0xbdd75baa	-0.105155304
242	0x3e884689	0.26616314
243	0xbe9b59cd	-0.3034195
244	0xbd007563	-0.03136195
245	0xbd04ab81	-0.03239012
246	0xbd0731d0	-0.03300649
247	0x3e087d71	0.13329102
248	0xbe5e2f6f	-0.21697782
249	0x3e23c477	0.15992914
250	0xbeb2cdf0	-0.34922743
251	0xbea986e7	-0.33110735
252	0xbd84bfef	-0.06481921
253	0xbd6befef	-0.057601865
254	0xbdbf274f	-0.093336694
255	0x3cd262fa	0.025681961

predictionFunction.startBlock.2.bias f4 [32]
0	0xbe5701d8	-0.20996797
1	0xbe14af11	-0.14519908
2	0xbbf930e2	-0.0076047042
3	0x3dd48054	0.10376039
4	0x3e98055d	0.29691592
5	0xbd174704	-0.03693296
6	0xbe116a4d	-0.14200707
7	0x3e395e1e	0.18102309
8	0xbe062f49	-0.13103975
9	0x3d05f54c	0.032704636
10	0xbe714b5e	-0.23563907
11	0xbe88b247	-0.26698515
12	0x3e19d56b	0.15022819
13	0xbe132b7b	-0.14372055
14	0xbd92a43d	-0.07160232
15	0xbdfdda14	-0.12395111
16	0x3e520c95	0.20512612
17	0x3dc92a94	0.09822574
18	0xbe423150	-0.18964124
19	0x3e197e3a	0.14989558
20	0xbe517b7a	-0.20457259
21	0xbd1e2253	-0.038606953
22	0xbc9269ee	-0.017872777
23	0xbd772e17	-0.06034669
24	0x3dc47639	0.09592862
25	0x3e7609af	0.24027131
26	0xbd888a2e	-0.06666981
27	0xbdd86971	-0.10566986
28	0x3e223de0	0.15843916
29	0x3bd3276e	0.0064439094
30	0x3d46b90c	0.04851632
31	0x3ca8444f	0.020540385

predictionFunction.policy_head.0.weight f4 [2, 32]
0	0x3e4c76ca	0.1996719
1	0x3e90c1dc	0.28272903
2	0x3d42e93b	0.047585707
3	0xbdc5d42e	-0.09659611
4	0xbe5e05f9	-0.21681966
5	0xbe41c2dd	-0.1892199
6	0x3d3f887a	0.046761014
7	0xbd9d2daf	-0.07674729
8	0x3d10e84f	0.035377797
9	0x3e664cd8	0.22490251
10	0xbdf1d095	-0.11807362
11	0x3d27ee76	0.0409989
12	0xbe6a0071	-0.22851731
13	0x3df6f024	0.12057522
14	0x3e420414	0.18946868
15	0x3e5226c1	0.20522596
16	0x3ea06e44	0.31334126
17	0xbed04da5	-0.40684238
18	0x3cfd0a6b	0.030888757
19	0xbde36ab8	-0.11104339
20	0xbca43e37	-0.020049198
21	0x3c311c44	0.010809962
22	0xbe88de30	-0.26732016
23	0x3db6197b	0.08891579
24	0x3da90999	0.08253784
25	0xbe6afb0c	-0.2294733
26	0x3e8d9f8c	0.27660787
27	0x3d7d7550	0.061879456
28	0xbe809b1f	-0.25118348
29	0x3eba54ef	0.36392924
30	0xbe644c34	-0.22294694
31	0xbe30ca1c	-0.17264599
32	0xbe8f700d	-0.28015175
33	0xbe09562b	-0.13411777
34	0x3b5a91d4	0.003335108
35	0x3c21f380	0.009884715
36	0xbdcd9d9e	-0.10039829
37	0x3d97bb23	0.0740874
38	0x3e5c33d9	0.21504153
39	0x3e53983c	0.20663542
40	0x3d29577d	0.0413432
41	0xbe058734	-0.13039857
42	0x3d3b2777	0.045691933
43	0xbe41c235	-0.1892174
44	0x3e8032a5	0.2503864
45	0xbe50e7ce	-0.20400926
46	0xbdf2e60f	-0.118602864
47	0xbe100e1a	-0.1406788
48	0xbd53dc48	-0.05172375
49	0x3e798f2e	0.24371025
50	0xbe32586d	-0.17416544
51	0x3e26c661	0.16286613
52	0xbe8db59b	-0.27677616
53	0xbc1e2ab9	-0.009653741
54	0x3e4d3916	0.20041308
55	0xbccbb7da	-0.02486794
56	0x3d2beb17	0.041972246
57	0x3e3ec4e4	0.18629795
58	0xbe868848	-0.2627585
59	0xbd8c9a97	-0.06865423
60	0x3e9c7d68	0.30564427
61	0xbe235ee9	-0.15954174
62	0x3d28dbf5	0.041225392
63	0x3e14b1fa	0.14521018

predictionFunction.policy_head.0.bias f4 [2]
0	0x3d824c28	0.06362182
1	0x3c5824d8	0.013192378

predictionFunction.value_head.0.weight f4 [1, 32]
0	0xbdb332c6	-0.08749919
1	0xbf1c5f9b	-0.6108338
2	0x3e5b976e	0.21444485
3	0xbed5e7ee	-0.4177851
4	0x3f1419d1	0.5785189
5	0xbe5b98dc	-0.2144503
6	0xbe6599c6	-0.22421941
7	0x3e545d2c	0.20738667
8	0xbc659e2f	-0.014014765
9	0x3e8401a3	0.257825
10	0x3d2968fd	0.04135989
11	0xbecef168	-0.40418553
12	0xbdfcd0c3	-0.12344506
13	0x3e317d0d	0.1733286
14	0xbdf69b5e	-0.12041353
15	0xbec07e18	-0.37596202
16	0x3dfe24ce	0.12409364
17	0xbd994f57	-0.07485836
18	0xbe3a9d66	-0.18224105
19	0xbe4b3e3b	-0.19847958
20	0xbf0b870e	-0.5450295
21	0xbe786f60	-0.24261236
22	0x3eb40f67	0.35168
23	0xbe85fbc3	-0.2616864
24	0x3dfd6858	0.123734176
25	0x3d273718	0.040824026
26	0xbe943d4f	-0.28953025
27	0x3db278ac	0.087144226
28	0xbe1b2482	-0.15150645
29	0x3d6e8183	0.05822898
30	0xbe8d9a0e	-0.27656597
31	0xbe7ba70f	-0.24575447

dynamicsFunction.startBlock.0.weight f4 [32, 34]
0	0xbe1d461f	-0.1535878
1	0x3daa9bf6	0.083305284
2	0xbd18f22a	-0.03734032
3	0x3e2e0922	0.16995671
4	0xbd4044bc	-0.04694055
5	0x3d51432d	0.051089454
6	0x3d0c45f2	0.034246393
7	0xbe4867b5	-0.19570811
8	0xbe13484f	-0.14383052
9	0x3e479236	0.19489369
10	0xbdd9efcb	-0.1064144
11	0x3a71ec30	0.0009228615
12	0xbd7e2c81	-0.06205416
13	0x3cdfdec0	0.027327895
14	0x3d670ec7	0.056410577
15	0x3e353b1e	0.17698333
16	0xbe137bff	-0.1440277
17	0x3e253a01	0.16135408
18	0xbc054c2f	-0.008135839
19	0xbe3219ef	-0.17392705
20	0xbe5253af	-0.20539735
21	0xbdea2749	-0.11433274
22	0xbe1959e9	-0.14975704
23	0xbe745ce2	-0.23863557
24	0x3e903d08	0.28171563
25	0x3e0a5633	0.13509445
26	0x3e2acaea	0.16678968
27	0x3e0cb38d	0.13740368
28	0x3e723341	0.23652364
29	0xbd881caf	-0.06646096
30	0xbdb20611	-0.08692563
31	0xbe519f0a	-0.20470825
32	0xbdf5d782	-0.120039955
33	0xbdbb2126	-0.09137182
34	0x3e4907b9	0.19631852
35	0x3bb7a143	0.0056039407
36	0xbd7b08cd	-0.06128769
37	0xbd583f56	-0.052794777
38	0x3d12e0cf	0.035858925
39	0x3da60c7f	0.08107852
40	0x3e55c72a	0.20876756
41	0x3e6722fa	0.22571936
42	0x3e8665a5	0.26249424
43	0x3e70e517	0.23524891
44	0xbbc24a43	-0.005929263
45	0x3d9c15aa	0.076213196
46	0xbc57859a	-0.013154412
47	0xbe72c28e	-0.23707029
48	0x3ca783ca	0.020448584
49	0x3e1f45d3	0.1555398
50	0xbd10096c	-0.035165235
51	0x3e500b67	0.2031685
52	0xbdb1917c	-0.08670327
53	0x3db0d768	0.086348355
54	0xbde0bc92	-0.10973467
55	0x3e021a08	0.12705243
56	0x3e4918a2	0.19638303
57	0xbdb7f694	-0.08982578
58	0xbcf25fc7	-0.029586686
59	0x3e6f7ce4	0.23387486
60	0xbd514172	-0.051087804
61	0x3d76bb88	0.060237437
62	0x3cb40a47	0.021977557
63	0x3be9382f	0.0071172933
64	0x3d4195c0	0.047261953
65	0xbc451306	-0.012028461
66	0xbdd15415	-0.102211155
67	0x3dcd7478	0.1003198
68	0x3e99c792	0.30035073
69	0x3e164fee	0.14678928
70	0xbdd41c74	-0.103569895
71	0x3c456087	0.01204694
72	0x3dc49f6c	0.0960072
73	0x3d9d9bc1	0.07695723
74	0x3db15f46	0.0866075
75	0xbe5f774e	-0.21822855
76	0x3e15cd28	0.14629042
77	0x3d4198e0	0.047264934
78	0x3cf24e16	0.02957825
79	0x3ceea633	0.029131984
80	0x3dfb9f5f	0.12286257
81	0x3cbe0817	0.023197217
82	0x3cd7fc68	0.026365474
83	0x3e9a32bf	0.3011684
84	0x3d78abc6	0.06071069
85	0x3d1768da	0.03696523
86	0xbd1c4aca	-0.038157262
87	0x3d9c2a0c	0.07625207
88	0xbd60de97	-0.05489978
89	0xbe33e074	-0.17566091
90	0xbe4f7fde	-0.20263621
91	0xbedbfc37	-0.42965862
92	0xbcafe6f8	-0.02147244
93	0xbdf66a14	-0.120319515
94	0xbe8475d4	-0.25871146
95	0x3eacaa78	0.33723807
96	0x3d4efa3a	0.050531603
97	0x3e38f44a	0.18061939
98	0xbd5feb5a	-0.054667808
99	0x3e7b27b2	0.24526861
100	0x3d8d8ca5	0.069115914
101	0xbe45a280	-0.1930027
102	0x3d5cd79d	0.053916562
103	0x3db5c29a	0.08875008
104	0xbe3aeeb6	-0.18255123
105	0x3d837497	0.06418722
106	0xbcb19b0f	-0.021680383
107	0xbcc435d2	-0.023951445
108	0xbe4f281a	-0.20230141
109	0xbde362ac	-0.111028045
110	0x3e821750	0.2540841
111	0x3e89698c	0.26838338
112	0xbb603147	-0.003420906
113	0xbd996c9a	-0.07491417
114	0x3d8a2c6d	0.06746755
115	0xbd984164	-0.07434347
116	0x3df5606b	0.11981281
117	0x3d8622df	0.0654962
118	0x3dd12c5c	0.10213539
119	0x3d81a054	0.06329408
120	0xbe06f18d	-0.13178082
121	0xbd968d25	-0.0735114
122	0x3dd8f302	0.10593225
123	0x3db9b523	0.09067752
124	0x3e77a1a5	0.24182756
125	0xbd08f8f3	-0.03344054
126	0x3e643682	0.22286418
127	0x3d90c474	0.070687205
128	0xbe2e83a1	-0.170424
129	0xbd01ce45	-0.031690855
130	0x3e037f26	0.12841472
131	0xbc87a401	-0.016557695
132	0x3e0b8128	0.13623488
133	0x3d552831	0.052040283
134	0x3e649145	0.22321041
135	0xbe0c2f5c	-0.13689941
136	0x3d0cf3cf	0.0344122
137	0x3ebb3496	0.36563557
138	0x3e91f63d	0.28508177
139	0x3d59584d	0.053062726
140	0x3d88bd06	0.06676678
141	0x3e0f23e9	0.13978542
142	0xbd7b4906	-0.061348937
143	0xbc50052b	-0.012696545
144	0xbc9c3dc0	-0.019072413
145	0x3e87823a	0.26466542
146	0x3d9d2d09	0.076746054
147	0xbd2ff5b9	-0.04295895
148	0x3d1f4c48	0.038891107
149	0xbd59444c	-0.05304365
150	0x3de04069	0.10949785
151	0x3ee770be	0.45203203
152	0xbed1a236	-0.4094407
153	0xbe12d230	-0.14337993
154	0xbe1690e9	-0.14703716
155	0xbdee1a0f	-0.11626064
156	0xbd26f82a	-0.04076401
157	0xbc92ee2a	-0.017935831
158	0xbda1b360	-0.07895541
159	0xbe7f8c74	-0.24955922
160	0xbe8ffa4f	-0.28120658
161	0x3e620340	0.22071552
162	0xbe238c81	-0.15971567
163	0xbe3605f5	-0.1777571
164	0x3e8cc3fb	0.2749327
165	0xbe90af8b	-0.2825893
166	0xbde355dc	-0.11100361
167	0x3e45cc90	0.19316316
168	0xbdc63606	-0.09678273
169	0x3bf6bbb2	0.0075296992
170	0xbe66851b	-0.22511713
171	0x3ce48124	0.02789361
172	0xbe6f9472	-0.23396471
173	0x3dfd0706	0.12354855
174	0x3d20f54d	0.039296437
175	0x3e07c3eb	0.1325833
176	0xbe292392	-0.16517475
177	0x3cfb6475	0.03068755
178	0x3e18e758	0.14932
179	0x3e177c1a	0.14793435
180	0xbce09385	-0.027414093
181	0xbd9c5b66	-0.0763462
182	0x3e697cae	0.22801468
183	0xbe29310e	-0.16522619
184	0xbe78fa48	-0.24314225
185	0x3ebed3bd	0.37270918
186	0x3ec110d9	0.37708166
187	0xbe2a712b	-0.16644733
188	0xbe198eb1	-0.14995839
189	0x3e2b497c	0.16727251
190	0xbd9a98b8	-0.0754866
191	0x3d730985	0.05933525
192	0x3e933a77	0.28755543
193	0xbd7920c3	-0.06082226
194	0xbe167946	-0.146947
195	0xbda29be1	-0.07939888
196	0xbe48b60d	-0.19600697
197	0xbeadbe17	-0.3393409
198	0xbdd69ae5	-0.104787625
199	0x3d0c4ad6	0.034251057
200	0x3cf1d0dc	0.029518537
201	0xbdda95bf	-0.10673093
202	0x3cfdee11	0.030997308
203	0xbce17189	-0.027519958
204	0xbe8709a0	-0.2637453
205	0xbe0d69d9	-0.13809909
206	0x3e482d50	0.19548535
207	0xbe89ef05	-0.2694017
208	0xbc14b270	-0.009075746
209	0x3cf94e1a	0.03043275
210	0xbee9a2ce	-0.45632023
211	0xbdc416f1	-0.09574688
212	0xbc8dffbd	-0.01733386
213	0xbdf65d70	-0.120295405
214	0xbde698cf	-0.11259615
215	0xbe741ba5	-0.2383867
216	0xbe595f51	-0.21227767
217	0x3d6e8698	0.058233827
218	0xbce73c19	-0.028226899
219	0xbe303a70	-0.17209792
220	0xbe152af6	-0.1456717
221	0x3dc260f1	0.09491146
222	0x3e2d42d9	0.16920032
223	0x3e4a18b7	0.1973599
224	0x3a3af259	0.00071314495
225	0x3e3f9581	0.18709375
226	0xbdc9367b	-0.098248444
227	0x3e12cd4e	0.1433613
228	0x3e714ec9	0.2356521
229	0x3d5008e2	0.05078972
230	0x3db4bc66	0.08824997
231	0xbe37d1c3	-0.17951111
232	0xbe22b8df	-0.15890835
233	0xbe7524a1	-0.23939754
234	0x3eb89b73	0.36056098
235	0xbe6f60e5	-0.23376806
236	0xbcbd0f4b	-0.023078581
237	0xbdb055d5	-0.08610121
238	0xbd1ea4b6	-0.0387313
239	0x3de593e2	0.11209847
240	0x3da31906	0.07963757
241	0xbe11b2ea	-0.14228407
242	0xbccd4386	-0.025056612
243	0x3e456dfd	0.19280238
244	0xbe0b4675	-0.13601096
245	0xbdba442d	-0.09095035
246	0x3d4e623c	0.050386652
247	0x3e8e82c3	0.27834138
248	0xbc4e5473	-0.012593376
249	0x3d1ee4ae	0.038792305
250	0xbbd209f5	-0.0064098784
251	0xbd1ba1ed	-0.03799622
252	0xbe0fc126	-0.14038524
253	0x3e432f80	0.19061089
254	0x3d5f0d72	0.05445618
255	0x3db14537	0.0865578

dynamicsFunction.startBlock.0.bias f4 [32]
0	0x3dcc156a	0.09965022
1	0xbc0459b9	-0.008078032
2	0xbd4b629f	-0.0496546
3	0xbe176135	-0.14783175
4	0xbe8ea418	-0.2785957
5	0x3cdd62f1	0.027024718
6	0x3e14c973	0.14529972
7	0xbdbed015	-0.09317032
8	0x3d2d3acc	0.0422924
9	0x3dbdbfb8	0.09265083
10	0x3dd05b8c	0.10173711
11	0x3c46864b	0.012116979
12	0x3e265792	0.16244343
13	0x3d84ce18	0.06484622
14	0x3e4cefce	0.20013353
15	0xbd91a1d5	-0.07110945
16	0xbe328ef5	-0.17437346
17	0xbda9f19a	-0.08298035
18	0x3d19ced1	0.03755075
19	0x3d979b9d	0.07402728
20	0xbe37140f	-0.17878745
21	0xbcc8c529	-0.024508076
22	0xbdeec2bf	-0.116582386
23	0x3e152a38	0.14566886
24	0x3e3191a6	0.17340717
25	0x3da753aa	0.081702545
26	0x3d077e66	0.033079527
27	0x3d70c2b2	0.058779426
28	0xbd837b6a	-0.06420024
29	0xbe5843a9	-0.2111956
30	0xbdfb1f93	-0.12261882
31	0x3df91179	0.12161536

dynamicsFunction.startBlock.2.weight f4 [32, 32]
0	0xbda96089	-0.08270366
1	0x3def3b55	0.116812386
2	0xbe414c70	-0.18876815
3	0xbe00aed2	-0.12566689
4	0xbd8f4be8	-0.069969
5	0x3ea50531	0.32230523
6	0xbe495b69	-0.19663776
7	0x3cc681d5	0.02423183
8	0xbe3b21e5	-0.18274648
9	0x3e09b161	0.13446571
10	0xbe061b45	-0.1309634
11	0x3ccbfae2	0.024899904
12	0xbe322271	-0.17395951
13	0xbe9788f7	-0.29596683
14	0x3e56dd23	0.20982794
15	0xbe35127e	-0.17682835
16	0x3dfca435	0.123360075
17	0xbeacf751	-0.33782437
18	0xbe24d403	-0.16096501
19	0xbe6032b8	-0.21894348
20	0x3e1d248d	0.15345974
21	0xbe398c78	-0.18119991
22	0x3e3e98b7	0.18612944
23	0x3e4e82f0	0.20167136
24	0x3d4a195a	0.049340583
25	0x3bcf4014	0.0063247774
26	0x3e3725f4	0.17885572
27	0x3daace67	0.083401494
28	0xbe1a5ef6	-0.15075287
29	0xbd8684b3	-0.06568279
30	0x3d3bb602	0.045827873
31	0xbded4e79	-0.11587233
32	0xbe1bc3dc	-0.15211433
33	0xbb383a78	-0.0028111022
34	0xbc028cab	-0.007968108
35	0xbc7749ed	-0.015093309
36	0xbdbc5a0b	-0.09196862
37	0x3d77c413	0.060489725
38	0xbddaa41b	-0.10675832
39	0x3df81976	0.12114231
40	0xbef5be21	-0.4799662
41	0xbd914a00	-0.070941925
42	0xbe157fe3	-0.14599566
43	0x3dae373c	0.08506629
44	0x3e12948b	0.14314477
45	0xbdae9ca2	-0.08525969
46	0x3e9bfdc8	0.30467057
47	0xbdf9d2ec	-0.12198433
48	0xbdd18c00	-0.10231781
49	0xbcc66d28	-0.024221972
50	0xbd49992f	-0.049218353
51	0x3e284444	0.16432291
52	0x3cc5b2d1	0.024133118
53	0xbdbe5649	-0.09293801
54	0x3e7473ac	0.2387225
55	0x3e19901b	0.14996378
56	0x3cc55b83	0.024091488
57	0x3ec2df8d	0.3806118
58	0x3e2916f4	0.16512662
59	0xbe23cb80	-0.15995598
60	0xbd89047f	-0.06690311
61	0xbe218983	-0.15775113
62	0x3c9155ef	0.017741172
63	0x3de8c57a	0.11365791
64	0xbe0f5772	-0.13998201
65	0x3e2c5285	0.16828354
66	0x3cc0ba5a	0.02352636
67	0x3db183d6	0.08667724
68	0x3e791925	0.24325998
69	0x3e4fcd6a	0.20293203
70	0xbe6bdaef	-0.23032735
71	0xbd9a57a9	-0.07536251
72	0xbe8047c3	-0.2505475
73	0xbd867e70	-0.06567085
74	0x3bcbcdee	0.006219617
75	0x3ce5ffe0	0.028076112
76	0x3e176098	0.14782941
77	0xbde63343	-0.11240246
78	0x3e487e6c	0.19579476
79	0x3d8d1e0c	0.068904966
80	0x3e096056	0.13415655
81	0xbe0db3d1	-0.13838126
82	0x3d9cec28	0.07662231
83	0xbe22a8f2	-0.1588476
84	0x3de6b09d	0.11264155
85	0x3cea6439	0.028612243
86	0x3b45bca4	0.0030172253
87	0xbe4a05e6	-0.19728813
88	0xbccc2895	-0.024921695
89	0x3b236005	0.0024929058
90	0xbdeede00	-0.11663437
91	0x3d130fe1	0.035903815
92	0xbe65d394	-0.22443992
93	0x3e4514f0	0.19246268
94	0x3daadd16	0.0834295
95	0xbe15b46a	-0.14619604
96	0x3d85cc02	0.06533052
97	0x3c36e7f4	0.0111637
98	0x3d6d6e17	0.057966318
99	0xbe3f78b9	-0.18698396
100	0x3e0ae33a	0.13563243
101	0xbea2c184	-0.31788266
102	0x3dfc9efa	0.1233501
103	0xbd0e1581	-0.034688476
104	0x3e304287	0.17212878
105	0x3dd42d4a	0.10360201
106	0xbe17df21	-0.1483121
107	0xbdb1cc3a	-0.08681531
108	0xbd92df32	-0.071714774
109	0x3df321dc	0.118716925
110	0xbcde5a9f	-0.02714282
111	0x3d0237c3	0.03179146
112	0xbe3f44e8	-0.1867863
113	0x3c2ccfc5	0.010547583
114	0x3da46d47	0.080286555
115	0x3e413ff6	0.18872055
116	0xbd9b3db9	-0.07580132
117	0xbdba713a	-0.091036275
118	0x3e0fc9cd	0.14041825
119	0xbe56a372	-0.20960787
120	0xbe7f4dde	-0.24932048
121	0xbe440baf	-0.19145082
122	0x3d943efb	0.07238575
123	0x3e5dea88	0.21671498
124	0xbde0409f	-0.109498255
125	0xbdfccc54	-0.1234366
126	0x3ddd4fa7	0.10806208
127	0xbdf3bbdf	-0.11901068
128	0xbd4ac6c7	-0.049505975
129	0xbe45346e	-0.19258282
130	0x3db012be	0.08597325
131	0xbd8e611d	-0.06952117
132	0xbe718273	-0.23584919
133	0xbe2020a7	-0.15637456
134	0xbe7807c9	-0.2422172
135	0xbdc0644d	-0.09394131
136	0xbec2516e	-0.3795275
137	0x3be9a6ed	0.007130495
138	0x3dc17955	0.094469704
139	0xbde9c915	-0.114153065
140	0x3c94bba5	0.018155882
141	0xbe7f23b3	-0.24915962
142	0xbdb971d2	-0.090549126
143	0xbd5b89a8	-0.053598076
144	0xbddcb952	-0.107775345
145	0xbd17a569	-0.03702298
146	0xbe6e92e0	-0.23298216
147	0x3da9ac3b	0.082848035
148	0x3df5de6d	0.12005315
149	0x3e31ca62	0.17362359
150	0xbcd6fc15	-0.026243249
151	0x3db2d4a1	0.08731962
152	0xbe2518e3	-0.16122775
153	0x3eaed8c4	0.34149754
154	0xbe497f16	-0.19677386
155	0xbd9c88c5	-0.07643274
156	0xbe2868b5	-0.16446193
157	0xbe276a39	-0.16349114
158	0x3d576ac0	0.05259204
159	0xbb3602bf	-0.0027772633
160	0x3e116cb4	0.14201623
161	0x3b874cea	0.004129042
162	0xbd2c80bb	-0.042114954
163	0x3d60b5fc	0.054861054
164	0xbe10a064	-0.14123684
165	0xbde719cb	-0.112842165
166	0x3d161980	0.036645412
167	0xbca744e3	-0.02041859
168	0xbe6a4a64	-0.2287994
169	0x3e0794a9	0.13240303
170	0xbc918b91	-0.017766746
171	0xbd2cb552	-0.042165108
172	0xbe8bbfb1	-0.27294686
173	0xbe5e80a5	-0.21728761
174	0x3e14ae17	0.14519535
175	0xbdde3d2a	-0.1085151
176	0x3e702d41	0.23454763
177	0xbc000b1c	-0.007815149
178	0xbd9202af	-0.07129418
179	0xbea2b9f1	-0.31782487
180	0x3a454a0d	0.0007525988
181	0xbd46114d	-0.048356343
182	0x3d1e38c6	0.038628362
183	0xbd8386b4	-0.06422177
184	0x3da2549f	0.079262964
185	0x3e00f3a4	0.12592942
186	0xbd70b74a	-0.058768548
187	0x3d0bab9b	0.034099203
188	0x3e00e524	0.1258741
189	0x3e8634c5	0.26212135
190	0xbb7eef39	-0.0038899912
191	0xbdfeab0f	-0.124349706
192	0xbc4900bb	-0.012268241
193	0xbe2de90c	-0.16983432
194	0x3c88588f	0.01664379
195	0xbde8058a	-0.113291815
196	0x3c522d12	0.012828128
197	0x3c4a8a33	0.012362051
198	0xbdf24d53	-0.11831155
199	0xbe835457	-0.25650284
200	0xbdc987b1	-0.09840334
201	0x3d1aed72	0.0378241
202	0x3e166513	0.14686994
203	0xbd9732bb	-0.07382723
204	0xbcff5cd1	-0.031172188
205	0xbe4b7218	-0.19867742
206	0x3dfe143b	0.124062024
207	0xbed067c6	-0.40704173
208	0xbe8d5731	-0.27605584
209	0xbd627a18	-0.05529222
210	0x3e42f641	0.19039251
211	0x3c627c8a	0.013823638
212	0xbe2b5e30	-0.16735148
213	0xbd97afcd	-0.07406578
214	0x3be9bd00	0.0071331263
215	0x3cc4e227	0.02403362
216	0xbd8799b1	-0.06621111
217	0xbd861e30	-0.065487266
218	0x3e3e41a4	0.18579727
219	0x3ea1bf7f	0.31591412
220	0xbe1036bd	-0.14083381
221	0xbdad82e1	-0.08472229
222	0x3dae7605	0.08518604
223	0x3a812715	0.0009853566
224	0x3d7589ff	0.059946056
225	0x3dd1cc8e	0.10244094
226	0xbe005431	-0.12532116
227	0xbe0fe505	-0.14052208
228	0xbe8b4405	-0.27200332
229	0xbd451a4e	-0.04812079
230	0xbd62798d	-0.0552917
231	0xbdf30d25	-0.118677415
232	0x3de52eb3	0.11190548
233	0x3e32d898	0.17465436
234	0x3e0298f8	0.12753665
235	0xbccb7b13	-0.02483896
236	0xbe19edce	-0.15032122
237	0x3d21bee9	0.039488707
238	0xbe611aa3	-0.21982817
239	0xbd8ccb98	-0.0687477
240	0xbc834988	-0.016026273
241	0x3da274af	0.07932412
242	0x3e837cb9	0.25681093
243	0xbe19019a	-0.14942017
244	0xbe5b595a	-0.21420804
245	0x3e3a2b62	0.18180612
246	0xbe360337	-0.17774664
247	0x3e4d8afb	0.20072548
248	0x3e33fbc1	0.17576505
249	0xbd4cd0a6	-0.05000367
250	0x3de38d7a	0.11110969
251	0xbe08458b	-0.13307779
252	0x3d4adcfe	0.04952716
253	0xbe3cf25e	-0.1845183
254	0xbe8e76d6	-0.2782504
255	0x3da645de	0.08118795

dynamicsFunction.startBlock.2.bias f4 [32]
0	0x3d7e0004	0.062011734
1	0xbc9abd26	-0.018889021
2	0xbd9482b7	-0.072514944
3	0xbe400e3a	-0.18755427
4	0xbc968ac2	-0.018376712
5	0x3d8312c0	0.06400061
6	0xbd30d54d	-0.04317217
7	0x3e92c714	0.2866751
8	0x3e3f5c20	0.18687487
9	0x3eb20eb5	0.34776846
10	0xbc3df3f2	-0.011593806
11	0xbd0ea5fd	-0.034826268
12	0x3dd396c0	0.10331488
13	0xbe09ab84	-0.13444334
14	0xbe16fefa	-0.14745703
15	0xbdcaffca	-0.09912069
16	0x3e4a590f	0.19760536
17	0x3e39394c	0.18088263
18	0xbe304dff	-0.17217253
19	0xbcaf7bdc	-0.021421365
20	0xbe2cbfdc	-0.16870064
21	0x3de14db0	0.11001146
22	0x3e214a7c	0.1575107
23	0x3df235d9	0.11826677
24	0xbe0a6875	-0.1351641
25	0x3da6d973	0.08146944
26	0xbcaacafb	-0.020848742
27	0x3dcd3976	0.100207254
28	0xbe73ee99	-0.23821487
29	0x3e050450	0.12989926
30	0xbe406b5e	-0.18790957
31	0xbe2cc308	-0.16871274

dynamicsFunction.rewardBlock.0.weight f4 [1, 32]
0	0xbf277639	-0.6541477
1	0xbf380d7d	-0.7189558
2	0xbecb8fad	-0.39758053
3	0xbd987d30	-0.074457526
4	0xbedaa664	-0.4270507
5	0xbe9170f5	-0.28406492
6	0xbe023509	-0.12715544
7	0x3e754ab5	0.2395428
8	0xbf1fc9e8	-0.6241746
9	0xbf40fe97	-0.75388473
10	0xbf08f25b	-0.53494805
11	0xbed0c0c2	-0.40772063
12	0xbf113d83	-0.56734484
13	0xbe7fa78b	-0.24966256
14	0xbe37dd01	-0.179554
15	0xbe936ac7	-0.28792402
16	0x3e6fadd8	0.2340616
17	0x3ed96ba7	0.42464945
18	0x3eed01f6	0.4629056
19	0xbf0a2541	-0.53963095
20	0xbf26dee7	-0.6518387
21	0x3e425635	0.18978198
22	0xbf49c880	-0.78821564
23	0x3ed10c03	0.40829477
24	0x3eaa5b7f	0.3327293
25	0xbf4dca44	-0.8038676
26	0xbf20e034	-0.62842107
27	0xbf3f5e4f	-0.7475328
28	0x3ed4bd3d	0.41550627
29	0x3dda3828	0.10655242
30	0x3ef8bd72	0.48582035
31	0xbefcbfd1	-0.49365094

representationFunction.startBlock.0.weight f4 [32, 4]
0	0xbc7aeb9b	-0.015314962
1	0xbeb365f9	-0.35038736
2	0xbfb90c22	-1.4456828
3	0xbebc2a83	-0.36751184
4	0xbe1ae79d	-0.15127416
5	0xbf0a3afb	-0.5399625
6	0x3ebb31a1	0.365613
7	0x3eecf725	0.46282306
8	0xbf284d84	-0.6574328
9	0x3e1bc3a5	0.15211351
10	0x3ffb305f	1.9624137
11	0x3edc5179	0.4303091
12	0x3eb4b373	0.3529316
13	0xbe28eeae	-0.16497299
14	0xbf88eba0	-1.0696907
15	0x3d13a377	0.036044564
16	0xbed6f7c6	-0.4198591
17	0xbd9b1303	-0.075719856
18	0x3faaa31b	1.3331026
19	0x3eb802c0	0.35939598
20	0x3e3d61d9	0.18494357
21	0x3e1f95fc	0.15584558
22	0x3f870951	1.0549718
23	0x3b8c9096	0.004289697
24	0x3cc1c56b	0.023653707
25	0x3d2b9263	0.041887652
26	0xbfc04c7c	-1.5023341
27	0x3e12855f	0.1430869
28	0xbf06f96b	-0.5272433
29	0xbe8a7627	-0.27043268
30	0x3fbbbf5f	1.4667777
31	0x3e15e25c	0.1463713
32	0x3eb70c1b	0.35751423
33	0x3d9e6b4b	0.07735308
34	0x3f89dd8e	1.0770738
35	0x3e9c5435	0.30532995
36	0x3c830ab6	0.015996318
37	0x3ed20ce2	0.41025454
38	0xbf7a49e8	-0.9776902
39	0x3f1e3a53	0.61807746
40	0x3e2bb911	0.16769816
41	0x3e197e38	0.14989555
42	0xbf960470	-1.1720104
43	0xbdf6b6b4	-0.120465666
44	0x3ea144b6	0.31497735
45	0x3e9e9699	0.30974272
46	0x3ed34dd8	0.41270328
47	0xbea49c5f	-0.32150552
48	0x3ed639ac	0.41840875
49	0x3dbc874a	0.09205492
50	0xbed2eb84	-0.4119531
51	0xbdfa0de3	-0.1220968
52	0x3e9371f9	0.28797892
53	0xbd9ccfbd	-0.076568104
54	0xbf334c92	-0.7003871
55	0xbf188575	-0.5957864
56	0x3ec3089f	0.38092515
57	0xbbd863b9	-0.0066036847
58	0xbf67b70b	-0.90513676
59	0x3ed48fa4	0.4151584
60	0xbe90e87c	-0.28302372
61	0xbe895a7b	-0.26826844
62	0xbf8f571d	-1.119846
63	0x3d7add2d	0.061246086
64	0x3e94ba49	0.29048374
65	0x3e87f956	0.26557416
66	0xbfbaf008	-1.4604502
67	0xbe643bda	-0.22288457
68	0x3e1221f9	0.14270772
69	0xbed16244	-0.40895283
70	0x3eb99132	0.36243588
71	0xbdf45323	-0.119299196
72	0x3e999f64	0.30004418
73	0x3e8eb18a	0.27869827
74	0xbe8f5bd3	-0.27999744
75	0x3e2a60dc	0.16638511
76	0xbe489078	-0.1958636
77	0x3ec9feb9	0.3945215
78	0x3fa489ef	1.2854594
79	0xbe6bcefb	-0.23028176
80	0x3e2b6898	0.16739118
81	0x3c376b08	0.011194952
82	0x3f99f0f3	1.2026657
83	0x3e6f67ac	0.23379391
84	0x3eda802a	0.42675906
85	0xbe9ab570	-0.3021655
86	0x3fb971af	1.4487818
87	0x3dc726a0	0.09724164
88	0x3e02082a	0.12698427
89	0x3e5a5876	0.21322808
90	0x3fab0743	1.3361591
91	0x3f0481c6	0.5176052
92	0x3e1654a1	0.14680721
93	0xbdd4eeb4	-0.103970915
94	0x3fd85cff	1.690338
95	0xbe439b86	-0.19102296
96	0xbdb6907b	-0.08914276
97	0x3ea8cbb6	0.3296792
98	0x3eb4af0d	0.35289803
99	0x3a02d0f4	0.0004990243
100	0xbd7713f3	-0.06032176
101	0x3ced85f4	0.028994538
102	0x3fd5f110	1.6714191
103	0x3e91e227	0.28492853
104	0x3eb9eb24	0.3631221
105	0x3e20ebe5	0.15714987
106	0xbd0f277a	-0.034949757
107	0x3e5b9834	0.2144478
108	0xbe9a6c49	-0.3016074
109	0x3d87454f	0.066050164
110	0xbfa9e90c	-1.3274245
111	0xbeb94e96	-0.3619277
112	0xbeda7453	-0.42666873
113	0x3e129400	0.1431427
114	0xbf9a274c	-1.2043242
115	0x3dc341f2	0.095340624
116	0x3efbc51a	0.49173814
117	0xbd52cf3e	-0.051467173
118	0xbfc9a3f3	-1.5753158
119	0xbed90757	-0.42388412
120	0xbe72052c	-0.23634785
121	0xbe6fe227	-0.23426114
122	0x3f8f1d2e	1.118078
123	0x3ebe9487	0.37222692
124	0xbee4db59	-0.446986
125	0x3e233eb9	0.15941896
126	0xbef3176e	-0.47478813
127	0xbe3f372d	-0.18673392

representationFunction.startBlock.0.bias f4 [32]
0	0xbc925f83	-0.01786781
1	0x3e2ef838	0.17086875
2	0x3f0fc156	0.5615438
3	0xbcffa306	-0.031205665
4	0xbec0bdf7	-0.37644932
5	0xbe90f3d6	-0.28311032
6	0x3d7814e5	0.0605668
7	0xbecc8595	-0.39945665
8	0xbec98214	-0.39357054
9	0xbe626b24	-0.22111183
10	0xbcf88019	-0.03033452
11	0xbe8df45d	-0.27725497
12	0xbeecd4f4	-0.4625622
13	0x3ed9e191	0.42554906
14	0x3f0d61a6	0.55227125
15	0xbe9b4209	-0.30323818
16	0xbea6c27d	-0.32570258
17	0xbe283e7e	-0.16430089
18	0x3e42a605	0.19008644
19	0x3db04c3a	0.08608289
20	0xbe4d0cfb	-0.20024483
21	0xbf039a1e	-0.5140704
22	0xbe79cd6d	-0.2439477
23	0xbccbd633	-0.024882412
24	0x3ead0ff9	0.3380125
25	0xbe39cdfa	-0.1814498
26	0x3f154881	0.5831376
27	0x3cb0c550	0.021578461
28	0xbe33fddc	-0.17577308
29	0xbee5cea2	-0.4488421
30	0x3f0b0515	0.5430463
31	0xbe755ce9	-0.23961224
