Weights/CartPole-v1/model.pt (torch, 83497 bytes, 20 tensors)

predictionFunction.startBlock.0.weight f4 [64, 32]
00000000: 1433 99bd 4969 c93e e6bd a2be b427 8ebe
00000010: b4a1 65be 815c 62bd c216 57bd f77a 6a3e
00000020: 4a8c f73d 5596 cbbd 25a3 39be 64e3 2bbe
00000030: ec6c b1be ec04 b33d 2b85 2fbd f3d4 36be
00000040: c34d 03bd 8fd3 443e 3512 9cbe a1c4 553e
00000050: 20fa 6d3e fdfc 153f b05c 0e3d 343d b23d
00000060: 47d2 0cbd e16c a13d f4da 7e3d 0aa6 4abd
00000070: 10e6 903b 8049 e63d 77fc 80be 82a1 7b3d
00000080: f73c 4abe 5c05 05be d145 70be 6657 25be
00000090: 7f17 3dbe 7284 263d 4d5f 1bbe 00e8 833e
000000a0: 516f 1c3e 1b5b 7cbe 0ca6 84bd b99d 053d
000000b0: d83c 05be d3b0 ad3c 1edc 263d 6bab cb3c
000000c0: 66d8 89be 73ea 4dbe 7b6c 9a3d 3be3 5c3e
000000d0: 33fb 213e c540 27bc bd92 1a3e 682d 9ebe
000000e0: 3831 84ba 8af6 b73c f909 b1bd 4774 babd
000000f0: bfe8 c8bd 488f 963e 4df0 a7be 8098 c0bd
00000100: dc76 7dbe 192e 303e e60c 9bbf 88e0 e93c
00000110: ed74 7b3d e8d4 043f 73be cabc 3b33 dbbe
00000120: b122 b1be c93d 493e 1786 8bbe c0af 0b3e
00000130: 359b be3e dd14 963d c653 853e e1d0 bc3d
00000140: 9e2a dfbe c164 a53e c62a 283d b758 45be
00000150: f576 873e e548 f03d 14d5 1a3f b11f a83d
00000160: 7772 343e 674f b23d d10a b53e d394 3a3e
00000170: c2ff 573e 3025 a63f ac9f 4bbf 7cb8 953e
00000180: 2d83 4e3d aa49 7b3e 91fc 13bf d3fd 34be
00000190: 6233 a23d a079 8b3e 9c50 053c 236e 18be
000001a0: 20e4 bbbe 9115 503e 8855 0ebe 61ec 35be
000001b0: 226e 803e 28d3 3a3d 8800 303d 0128 e03e
000001c0: 3400 0abd cd15 653e da0e e8bd 4444 833c
000001d0: 3775 75bd 73cb ce3e e5cd 463e 7b6c b23e
000001e0: 59ec 3a3e 45d3 253d ba67 e33d c0d3 973e
000001f0: cc1e 2fbd 39d7 a13d d7a2 e8be adf9 903e
00000200: 3c63 0abf f487 41be be32 66be 9d56 7d3e
00000210: 60d5 763d 6bff 2a3e 53d5 59bd be5b 2ebe
00000220: 321e fabb 0f59 62bd ddb3 81bd 64b3 223f
00000230: 7076 973e 383f 113f b3bd bc3d aef3 8dbe
00000240: ba74 e7be 0714 f5be 11f3 113d a32e 5cbe
00000250: a111 3c3b 6cc2 6ebe 1cdf 9a3d 2359 1fbe
00000260: 6f98 a33d 0c0f 103f f5c4 d1bd e505 b4bd
00000270: d0c7 21be 649d 8c3e 47ee f2bd ac12 cb3e
00000280: cfcd e6bd 07d6 02be 54e4 9cbc 29a2 7cbe
00000290: fb4a c23e 5dbe 0cbe c71c 86be 8bba 823e
000002a0: 4cad ebbc 9afa 993d 5bca fe3d ace6 173e
000002b0: 8151 553e f672 1b3d 9291 0a3d 3b24 a23a
000002c0: 4ef3 debd 7710 15be 0d5a f43e 1b29 b6bd
000002d0: c38e c6bc 8513 95bd 4814 6c3e 7252 e8bc
000002e0: 8775 083d 8676 c73d e384 93bd cddd 6cbe
000002f0: 9180 36bf dc84 763e fc11 a13d 82cf c73d
00000300: a22a 44be 3fe3 14bd a66d 75bd 7660 2ebe
00000310: 740e 11be 7b07 403e 2146 ffbe 61b3 9d3e
00000320: fa2b bebc 1fd9 923e 022f 14bf 0e0b 3bbe
00000330: f4cd 0abc 0152 7b3d b63d 513e 0865 523e
00000340: 5d53 083d aad8 f83c 912c 7d3e 4e20 cb3d
00000350: 757c ac3c 7164 1b3c d147 5a3d d153 3bbd
00000360: 29c8 68be 5eff c6b8 70c4 393d ae9e d6be
00000370: 0cfb 45be 65d1 783e 65fd 79bd bb98 003d
00000380: bfae 51be 6d88 0b3e b025 a7be d642 ea3d
00000390: e5c3 c2bd 54e8 c4bd e120 213c 9712 193e
000003a0: 0bfe 063e 0863 ee3d 2b98 493e 9d02 e9bd
000003b0: 53c9 533e cf3e 02be 511f 6ebe 2f48 6e3e
000003c0: 07cb d73d 835e ec3d 09ca e6bb 367e 3c3d
000003d0: 7361 5a3e 4ab1 833d ba2b d83e 11e3 5bbe
000003e0: 996b e13d 81a1 953d e8c0 163e 9a42 a53e
000003f0: 181b 193e 6c7f 703e 99d8 e0be 5a70 81be
-0.074804455 0.3933814 -0.31785506 -0.27764666 -0.22424966 -0.055264 -0.052511938 0.2289847
0.12087305 -0.09940783 -0.18128641 -0.16785961 -0.34653413 0.08741173 -0.04285161 -0.17854671
-0.03205658 0.19221328 -0.3048264 0.20875789 0.23239946 0.58589154 0.034756362 0.0870308
-0.034380224 0.07882095 0.06222053 -0.049474753 0.004421957 0.11244488 -0.25192615 0.061433323
-0.19749819 -0.12990326 -0.23464133 -0.16146621 -0.18465994 0.040653653 -0.15173073 0.2576294
0.15276839 -0.24644129 -0.064769834 0.03262112 -0.13011491 0.02120248 0.040737264 0.024862012
-0.2692291 -0.20108967 0.07540222 0.21571057 0.15818481 -0.010208313 0.15095039 -0.30894017
-0.0010085469 0.022456426 -0.0864448 -0.091042094 -0.09810018 0.2940619 -0.32800522 -0.09404087
-0.24752373 0.17205085 -1.2113311 0.028549448 0.061390806 0.5188737 -0.024749016 -0.42812523
-0.3459678 0.19652475 -0.2725074 0.13641262 0.3722779 0.07328198 0.26040477 0.09219528
-0.43587202 0.32303432 0.041056417 -0.19272123 0.26457945 0.117326535 0.6048138 0.0820917
0.1762179 0.08706551 0.35359815 0.18220834 0.21093658 1.2980099 -0.79540515 0.29242313
0.050418068 0.2453982 -0.5780726 -0.17674951 0.07919957 0.2724123 0.008136895 -0.14885764
-0.36697483 0.20320727 -0.13899815 -0.17765953 0.25084025 0.04561153 0.042969257 0.4378052
-0.0336916 0.22371598 -0.11330958 0.016023763 -0.059926238 0.40389594 0.1941448 0.3484839
0.18254222 0.040484685 0.11103769 0.2965374 -0.04275398 0.079023786 -0.45436737 0.28315488
-0.5405767 -0.18899518 -0.22480294 0.24740072 0.060262084 0.16698997 -0.053181957 -0.17027184
-0.007632994 -0.055260714 -0.06333134 0.6355498 0.29582548 0.5673709 0.0921587 -0.27724975
-0.45206243 -0.47866842 0.035632197 -0.21502165 0.002869703 -0.23316354 0.07562086 -0.15561347
0.07988059 0.5627296 -0.10242645 -0.08790187 -0.15798879 0.2746383 -0.11861854 0.39662683
-0.112697236 -0.12776957 -0.019151844 -0.24671234 0.3794783 -0.13744493 -0.2619383 0.25532946
-0.028769158 0.075185016 0.1244094 0.14834088 0.20831873 0.037951432 0.033830233 0.0012370417
-0.108862504 -0.14557062 0.47724953 -0.08894559 -0.024237996 -0.07279114 0.23054612 -0.028359625
0.033315208 0.097394034 -0.072030805 -0.23131485 -0.71289927 0.2407412 0.07864758 0.09756376
-0.19156888 -0.03634953 -0.059919022 -0.17028984 -0.1416567 0.18752854 -0.49858192 0.30800918
-0.023214329 0.28681275 -0.5788423 -0.18265936 -0.008471955 0.061357502 0.20433697 0.20546353
0.033282626 0.030376751 0.24724032 0.09918271 0.02105544 0.009484396 0.053291146 -0.04573423
-0.22732605 -9.4889416e-05 0.045353353 -0.41917938 -0.19334048 0.24298628 -0.06103267 0.031395655
-0.20476817 0.13626261 -0.3264594 0.11438529 -0.0951002 -0.096146256 0.009834499 0.14948498
0.13182847 0.116399825 0.19686954 -0.113774516 0.20682268 -0.12719272 -0.23254134 0.23269723
0.10536771 0.11541464 -0.0070431274 0.0460188 0.21326236 0.064302996 0.4222086 -0.21473338
0.11006851 0.07306195 0.14722025 0.32277375 0.14951742 0.23486108 -0.4391525 -0.2528103

predictionFunction.startBlock.0.bias f4 [64]
00000000: b0b8 42bd 59ae 31be ac39 44be 09bd 4b3d
00000010: e7db 0abe 967a 93ba a1ce b73d 5225 6bbd
00000020: 3837 553e 9f2b b43d c55c 5fbe 0aae 9fbd
00000030: 09d2 ecbd 98a0 603c 3608 c6bd a7d5 51bc
00000040: 1367 b3bd b189 153e 1bcb 73be a282 6a3b
00000050: f0af 52be e036 84bd 10a4 18bd dc44 23bd
00000060: bebb 2dbc eacc dd3c c445 b03d f01a bebd
00000070: 8237 a8ba 10cb 3dbe d62e ef3b 1e54 01be
00000080: ce9f 813d 794c 4abe 137b 29be 6b89 d23d
00000090: 2d85 70bd cf65 e5bd d979 debd 59ad 2abd
000000a0: 74b0 0abe 1811 eebd 403d 82be a43d 93bd
000000b0: fe45 993d e11a 63be 1a02 c23c 3220 ebbd
000000c0: 5221 ab3d 53d5 e23d 0897 e2bd 7b89 1f3d
000000d0: 62f5 2bbe b991 fcbc 6e9c f2bd 2851 033e
000000e0: 4414 76ba 7329 5c3d 9d51 79bd adb2 163d
000000f0: 3151 143e a096 223e ec78 b1bd 1f48 553d
-0.047539413 -0.17351665 -0.19162625 0.049740825 -0.13560449 -0.0011251743 0.08974958 -0.05740864
0.20821846 0.087973826 -0.21812733 -0.07796867 -0.115634985 0.0137101635 -0.09669535 -0.012807286
-0.08759894 0.14603306 -0.23807947 0.003578343 -0.20574927 -0.06455779 -0.037265837 -0.03986059
-0.010603843 0.02707525 0.08607057 -0.09282482 -0.0012833925 -0.18534493 0.0072992845 -0.12629744
0.063293085 -0.19755735 -0.16550855 0.10280117 -0.058720756 -0.11201059 -0.10863084 -0.041669223
-0.13543874 -0.11624354 -0.25437355 -0.071894914 0.07484053 -0.22178222 0.023682643 -0.1148075
0.08355965 0.110758446 -0.11063963 0.03894947 -0.16792825 -0.030831205 -0.11846243 0.12823927
-0.0009387175 0.053750467 -0.060868848 0.036791492 0.14484097 0.15877771 -0.08665642 0.052070733

predictionFunction.startBlock.2.weight f4 [64, 64]
00000000: baf2 24be d4a7 2f3c 901f aa3e cd90 f9bd
00000010: a0e8 1cbe d1d3 abbe 1e6f 8b3e 1404 133e
00000020: 00e1 14bf 8599 43be 9c86 30be 65b2 e5bc
00000030: 6e38 573e 69ba e53e a1d9 ac3d 6d7c b03d
00000040: a18b 083e c1a3 88be 0910 f2be 0b9b 83be
00000050: 578e bdbd c44a 0f3d b5ee 9a3e 0fd2 4c3e
00000060: 31e9 00bf cb7b 09be 93ed 483f 0ae9 30bb
00000070: d6e3 43be 3199 9b3e a51f edbd e333 b1bd
00000080: f4a2 88be a892 703e 795b ad3d 9893 83be
00000090: 3567 0dbe e6e7 a83e 34e0 30be 23b3 18bd
000000a0: 2847 96be a97f 733d 19e2 253e de4e 583c
000000b0: 0fd0 56bd 721c d3bd f90e 32be fefd 573d
000000c0: b63f 29bc 3fb6 08bf d786 74be a96e 5abe
000000d0: 073e d4bc af23 41be 9ea1 e43e d863 afbe
000000e0: 6d3e bbbe 33fe 493c 54a2 30be e66e 9a3e
000000f0: e35b ac3d c22a e8bd f8fc 073e d37b 09be
00000100: cc3a d2bd ad58 63bc 23c1 0c3e 92dd 50bd
00000110: cb49 033f e9b1 62bd 1654 993e d022 2c3e
00000120: 7c56 e3be 7e22 8a3e 04b2 17bd 9115 6b3e
00000130: 999b f83e 8e40 823e f64b 863d 3d7e 40be
00000140: 69d2 923e 9938 c7bd c7f1 493c 734c 2cbc
00000150: 73f3 99bd 67a6 10be d944 cf3d 6ad1 173e
00000160: 7984 3cbe 5bc8 a7be f576 f73e 47e5 28be
00000170: 1eb2 d1be 9d36 2e3d 8f7b a1bd 9c35 cf3b
00000180: 5857 a5be 64e0 1c3e afcb b53e 382f 3dbe
00000190: 9fe8 b03e 3093 04bd dd2f 5cbe c6bd a03c
000001a0: 0e5e 683e 85af aa3d bd74 eb3c 8b57 3b3e
000001b0: eb8c bd3e b44b 7d3d 1c93 82be f51f debc
000001c0: b2af 0ebe edcf 15be e016 5dbd 2818 1fbe
000001d0: ff9f 643e 8709 32bd a647 56be 3740 79be
000001e0: 2fb5 a13d ee7f 9abc e336 6ebe 8051 2b3f
000001f0: 03d3 903e a5ba 313c 7fba 3e3e 4848 dabd
00000200: e4f7 6cbe 5875 3bbe ec1a 8e3e c6cf 36be
00000210: dc56 74be 8b20 dfbc e0db 253e b865 8ebc
00000220: 2ea8 7abd 48ea b6be 84ba f1bc dba5 2b3e
00000230: c5a7 ef3d 5d95 d13d 549e bcbd 7a5c 08bd
00000240: bf06 a53d 61b8 553c 40e9 9cbd 1238 a13c
00000250: 75af 253d 4e6e 49be 8f45 c73d 5087 e93c
00000260: 89c5 f73d bdad 8cbe 3ce8 3f3c 2772 ea3c
00000270: 25f7 98be 9c84 a5bd 2c9e bb3d 7406 053d
00000280: 33f1 79bd 8694 d4bb 7e74 36be 11a9 9f3c
00000290: 866b d03d f972 35be 9bdc db3c 853b 97bd
000002a0: 457d 8ebd af29 97bd ead1 bdbd 1b7c b9be
000002b0: 60a5 313d f7a0 9ebe 20e7 58be 986d 36be
000002c0: 6285 3bbe bf68 01be 0c63 db3d 6dfa ee3c
000002d0: 4c20 f13d 6f6c dcbd 6f8d a43b df87 f6bc
000002e0: 3def e2bc 3077 80bd 9195 043d cbeb 49be
000002f0: 0cfd cbbd 8794 14be ebb4 29be 41c4 0f3e
00000300: 88c7 25bf c7eb 5fbe 0d03 a93d 0913 813e
00000310: 6df4 3e3d 777e 063e 532e c33a a4fc 0a3e
00000320: c895 2bbf 8447 593e 3860 58be 428d ea3c
00000330: 1d65 ac3c d79c bfbd 873d 0a3e b71e 043e
00000340: 48be d03c 74e3 07be 8e88 8ebd d085 b2bd
00000350: 75aa a1bd 539d 8bbe b286 abbd 6ae4 953d
00000360: 772d b7bd ce53 21be 1b28 6c3d 746c a8be
00000370: 5a88 9b3e a3ee 5bbe b0f8 ca3d c58c f33c
00000380: 8e02 863d 16de 253e 17d6 73bc e607 abbe
00000390: 0470 c13d 1436 77bd 1d00 5ebf 02d2 263e
000003a0: b282 143f b943 94be 57c9 d23c 5fa5 003f
000003b0: b651 863e 8f99 9fbe 72de a83c c844 f4be
000003c0: e3f7 383e fcfb aebf 2eb8 3b3d c83a c2bd
000003d0: e78e 313e 18c6 0d3e aff3 133e 825f 933d
000003e0: 2091 8fbe 52f6 353d b0dc 023e d68a 0ebe
000003f0: 4d19 06bf 9396 01be 15ba f53d 174e 593d
-0.16108218 0.010721166 0.33227205 -0.12185822 -0.15323114 -0.3356004 0.27233213 0.14357024
-0.5815582 -0.19101532 -0.1723885 -0.028039167 0.2101762 0.44868782 0.08439947 0.08617482
0.13334514 -0.26687434 -0.4727786 -0.25704226 -0.09255665 0.03498341 0.30260244 0.20002006
-0.5035582 -0.1342613 0.7848751 -0.002699437 -0.19129881 0.30390313 -0.11578301 -0.08652475
-0.26686823 0.23493445 0.08464713 -0.25698543 -0.13808902 0.32989424 -0.17273027 -0.037280213
-0.29351163 0.059447918 0.1619953 0.013202397 -0.052444514 -0.1030816 -0.17388524 0.05273246
-0.010330131 -0.53403085 -0.23879562 -0.21331276 -0.025908483 -0.18861268 0.44654554 -0.34255862
-0.36571065 0.012328672 -0.17249423 0.30162734 0.084159635 -0.113362804 0.13280094 -0.13426141
-0.10265121 -0.013876122 0.13745551 -0.050992556 0.51284474 -0.05534545 0.29946965 0.16810155
-0.4440192 0.2697944 -0.037035003 0.22957446 0.48556212 0.25439876 0.06557457 -0.18798156
0.28676155 -0.09727592 0.012325711 -0.010516274 -0.075171374 -0.14125977 0.101205535 0.14825979
-0.1840991 -0.32770047 0.48332945 -0.16493712 -0.40956205 0.042532552 -0.07884895 0.0063235294
-0.322932 0.15319973 0.3550696 -0.18475044 0.34552476 -0.03236693 -0.21502633 0.019621741
0.22692129 0.08334259 0.028742189 0.18295114 0.37021574 0.061839774 -0.2550286 -0.027114848
-0.1393421 -0.14630099 -0.053976893 -0.15536559 0.22326659 -0.043466117 -0.20925769 -0.24340902
0.07895886 -0.01885983 -0.23263125 0.66921234 0.2828599 0.010847722 0.1862583 -0.10658318
-0.23141438 -0.18306482 0.27754915 -0.17852697 -0.23861259 -0.027237197 0.16197157 -0.017382488
-0.061195545 -0.35725617 -0.029507883 0.16762488 0.117019214 0.10233567 -0.09209886 -0.033291318
0.08057927 0.013044448 -0.076616764 0.019680057 0.040450532 -0.19670984 0.09730064 0.028506905
0.12098224 -0.27476302 0.011713084 0.028618885 -0.29876056 -0.08081934 0.09161028 0.032476857
-0.06102104 -0.006487432 -0.17817876 0.019489797 0.101767585 -0.1771964 0.026838591 -0.07384399
-0.06957487 -0.073809974 -0.092685536 -0.36227497 0.043370605 -0.3098218 -0.21181917 -0.17815244
-0.183126 -0.12637614 0.10712251 0.029172147 0.11773738 -0.107628696 0.005021743 -0.030094085
-0.027701968 -0.06272733 0.0323692 -0.19718854 -0.09960374 -0.14509784 -0.16572921 0.14039709
-0.64757586 -0.21867286 0.08252535 0.25209835 0.04661982 0.1313418 0.0014891125 0.13572937
-0.67025423 0.21218687 -0.21130455 0.02863181 0.021044308 -0.09356087 0.13500033 0.12902342
0.025481358 -0.1327036 -0.069596395 -0.08716929 -0.0789384 -0.27268466 -0.083753005 0.07318957
-0.089442186 -0.15754625 0.057655435 -0.32895243 0.30377465 -0.21477751 0.099107146 0.02973021
0.06543456 0.16198 -0.014882586 -0.33404464 0.094451934 -0.060354307 -0.8671892 0.16291049
0.58011925 -0.28957918 0.025730772 0.50252336 0.26234215 -0.31171843 0.020613883 -0.47708726
0.18063311 -1.367065 0.045829944 -0.09483868 0.17339669 0.13845098 0.14448427 0.07195951
-0.2804041 0.044424362 0.12779498 -0.13920149 -0.52382356 -0.12655096 0.11998383 0.053052988

predictionFunction.startBlock.2.bias f4 [64]
00000000: 8cd4 cfbd 3364 cabd e2de 95bd 765b 093e
00000010: aa1a 35be 3231 00be 6972 f83c 477f 81be
00000020: 8ddf bebd 094c aebc a0ac bbbd 2cee f23d
00000030: 85fd 0a3e c158 1b3e cfc8 483e fcca 143c
00000040: d9a7 2dbe 6650 bfbd b71d 9ebe b60c 673d
00000050: e5ce 7b3d dc0a a2bd c2eb abbd 9b8e d83d
00000060: b853 c1bd 9ab1 f1bd 7868 4bbd 4544 ddbd
00000070: 7302 c5bd 33ec e23d d9a3 01be 3f73 a93b
00000080: bcd9 5abd af0d 733b e7aa c63c 9895 e6ba
00000090: c9e4 923d 8d4b c7bd aaf9 a13c 97b0 a63c
000000a0: e9ce d4bd 0f0f 543e ffaf 0b3e cded b1bd
000000b0: f38e c53d 6661 e9bd 7b42 9d3d ac46 afbe
000000c0: 518d e1bb 2b76 2ebe 3549 14bd 28d3 923d
000000d0: 4426 6e3e e452 eebd ada5 41be 1f48 af3e
000000e0: 2c72 79bc 8985 90bd 2e7a c83d 4224 4d3e
000000f0: b5eb ac3d 0512 133e bf70 5bbd 9af0 74bd
-0.10147962 -0.09882393 -0.07317902 0.13413796 -0.17685953 -0.12518767 0.030327993 -0.25292417
-0.09319983 -0.02127649 -0.09163785 0.11861834 0.13573273 0.15170576 0.19607852 0.009081598
-0.1695856 -0.09341507 -0.30882046 0.056408606 0.061476607 -0.079122275 -0.083945766 0.10574075
-0.09439796 -0.11801453 -0.049660176 -0.10804037 -0.09619608 0.11080208 -0.12660159 0.005171209
-0.053430304 0.0037087013 0.024251414 -0.001759219 0.071725436 -0.09731207 0.01977237 0.020347876
-0.103910275 0.2070887 0.13641356 -0.08687935 0.09646406 -0.113955304 0.07678696 -0.34233606
-0.0068833013 -0.17037265 -0.03620263 0.07169181 0.23256785 -0.11636904 -0.18910857 0.34234712
-0.015224975 -0.0705672 0.09788929 0.20033363 0.08443395 0.14362343 -0.05357432 -0.059799768

predictionFunction.policy_head.0.weight f4 [2, 64]
00000000: 8e88 52bd 4528 41bd 5521 c9bd 704f 1b3e
00000010: 434c 31be 353e ba3d d966 d93d f088 ea3e
00000020: eae5 3c3d 7345 f33c 9e81 3b3d 1205 893d
00000030: eff8 60bc cc2b debd 85ef 013d eb39 38bd
00000040: d00a 94bd b437 6a3d 92d7 8abe 6076 ffbd
00000050: 596a 053e 208c d93d 01db 433d c58c 0c3e
00000060: c99b 9d3d 033b 4fbe d676 c63d f182 91be
00000070: 709b 3e3d 2e05 34be 72f6 713b 64dd 053e
00000080: a2b0 85bc 3117 d6bc bc34 6ebe 8f31 86bd
00000090: cfe5 aabd 3655 943e 784f 643d 7d75 a63c
000000a0: 5153 783e 9bc2 993e 7341 8f3d 64f5 8abe
000000b0: 161d d4bd 7317 27bd afdd 40be a53f 073d
000000c0: c6a8 ac3d 4e5a 883e b5f3 25be a8f6 013e
000000d0: 4848 a0bd 59e8 823d 7c1f 2e3e a485 3fbc
000000e0: 582c 703d 0eb9 743c 1a85 f13c 83cc babd
000000f0: 65b3 223d 9ba1 ff3a 3131 983d fb1d a93d
00000100: 391f a33d a6c8 10be 6bec cf3d db06 35be
00000110: 0d28 11bd 95ee 453d 71a0 a73d 5445 afbe
00000120: 5e81 26bc f928 fbbc a55a e73c 177f 62bd
00000130: 9fa7 103e f8d5 123e 84ec 17bb 9733 153e
00000140: c769 f13d fc2b 6dbe 5dd6 853e 9a70 a83c
00000150: 3009 9dbc 30ed 0d3c 65d7 52bd c968 05be
00000160: 41f5 c53d c29f 4c3e e891 263d 7377 8f3e
00000170: 9c1a 853c 447c 6a3e c166 c23d 831c 39bd
00000180: f2a0 84bd 729a b8bd 10f7 7c3e 5a4f 903c
00000190: 8e15 933c 3b74 83be 381b 5b3d 767d ee3d
000001a0: e152 78be 9746 5ebe 5b44 563c 427e 463e
000001b0: f03a 71bd ec64 d9bc 4d7d af3d 2180 85bd
000001c0: 405d 1dbe 9e31 6abe 17a3 0e3e 1634 a2bd
000001d0: 651a 08bd 672f 063e 9c36 d2bd c06d 60bc
000001e0: 94d6 093d 5622 2bbe ea13 37be e2ba 9abd
000001f0: 07e9 ae3d 0ecd 5f3e 021e c7bd ce17 0e3d
-0.05139976 -0.047157545 -0.09820811 0.15167022 -0.17314248 0.09093896 0.1061532 0.458076
0.0461177 0.029696202 0.04577791 0.0669042 -0.013731225 -0.10848197 0.031722564 -0.04497711
-0.07228625 0.05718203 -0.27117592 -0.1247375 0.1302885 0.1062243 0.04781628 0.13725574
0.07695729 -0.20237355 0.09690635 -0.28420213 0.046534956 -0.17580101 0.0036920574 0.13072735
-0.016319577 -0.026134105 -0.23262304 -0.06552421 -0.08344614 0.2897126 0.05573985 0.020319695
0.24250533 0.30031285 0.06994905 -0.27140343 -0.1035711 -0.040793847 -0.18834566 0.03301968
0.084306285 0.26631397 -0.16206248 0.12691748 -0.078262866 0.06391973 0.17004198 -0.011689577
0.05863604 0.014936699 0.029482413 -0.09121039 0.039721865 0.0019503118 0.074312575 0.082576714
0.079649396 -0.14139041 0.10152515 -0.17678396 -0.035438586 0.048323233 0.08184899 -0.3423258
-0.0101626795 -0.030659186 0.028241465 -0.055296984 0.14126442 0.14339435 -0.0023181746 0.14570461
0.117877536 -0.2316131 0.2614011 0.020561505 -0.01916942 0.008662507 -0.051474947 -0.13028254
0.09665919 0.19982818 0.04066649 0.2802082 0.01624804 0.22898966 0.09492255 -0.045193207
-0.064760104 -0.09013833 0.24703622 0.017615963 0.017954614 -0.25674614 0.053492755 0.116450235
-0.24250366 -0.21706615 0.013077821 0.19384101 -0.058894098 -0.026537381 0.08568821 -0.06518579
-0.15367603 -0.2287049 0.13929401 -0.07920091 -0.033228297 0.1310402 -0.10264322 -0.013698041
0.033651903 -0.16712317 -0.1787869 -0.07555176 0.0854054 0.21855566 -0.097225204 0.03469067

predictionFunction.policy_head.0.bias f4 [2]
00000000: 2ee3 893c 9ab4 fdbc
0.01683196 -0.030969907

predictionFunction.value_head.0.weight f4 [64, 64]
00000000: acb8 99bd 33ba acbc a30e 0abc f5e6 6a3d
00000010: 090f 073d 99e3 5fbd df56 613d 1134 9cbd
00000020: a7f8 69bd c3b8 0fbe 27f2 133d e638 0abd
00000030: 6cd7 d4bd a49e ebbd 6ba8 90bd 5f31 ccbd
00000040: 84a5 50bd fd99 d8bd 6a51 b9bd 8fd8 0a3d
00000050: 732d a2bd 0067 503d d07b 0b3c 88f3 9cbd
00000060: 0b5f ad3c 400a 9c3d 1eb4 73bc 9003 5e3c
00000070: 20cd cf3d 4267 3cbd 2014 e13c 0a19 523d
00000080: 3ebc 12be 7e29 973d c384 cabd a060 d2bb
00000090: 4a7a babd cc15 ce3c ace6 cdbd cbfd 99bd
000000a0: 80ed b03c 979f bebd 3d80 efbc 0b83 983d
000000b0: 7e39 22be 1657 a6bd fe1f f0bd 0b23 ab3d
000000c0: a715 9a3b 12ca d6bd 296a 0fbe 384d 843d
000000d0: abb4 553d 9c88 dcbd f558 cabb c824 7abd
000000e0: ffc1 823c 08c1 f0bd a488 043d 1f4e a43d
000000f0: 3204 b43b 13c1 99bd 2c04 5ebc 04eb 5c3d
00000100: c174 20be f0c8 fbbd 40ff d4bd 9cd3 513c
00000110: 4217 14be f206 55bd 8586 64bd d3d1 cbbe
00000120: 3d82 503d afc9 1d3d 53b3 02be e8bd 94bd
00000130: d277 c3bd f9f2 27be a000 ffbd 8d3f 63bd
00000140: d8f9 92be 10b8 c9be 528d adbd c631 63bb
00000150: 7e53 0dbb 7cd6 2f3d e859 2ebd fa01 c7bd
00000160: ed34 d83e f77f 7a3e c9c4 883d d095 adbc
00000170: 5cf0 e43d 0009 29be 2f55 25be a7e5 20bd
00000180: bace f2be 0595 6fbe e3c7 d1bd 7039 f43c
00000190: 3b89 e93d 64be 883b cf33 8b3c 0753 543e
000001a0: 15af 5cbe 3132 75bd 2a2d bdbd ad30 bcbe
000001b0: 518a c1be 5a4c eb3d 3cea 42be 75c8 18be
000001c0: 6a6f 633e 9ad8 52bd dc50 bfbd dae5 823d
000001d0: 1f2a 95bd c699 b0be 2e97 c3bd f7b5 793e
000001e0: 6b8d f8bc cc31 e2bb 32da 2b3e 4023 603d
000001f0: ddd6 e3bd 941d 0f3e eb8c 70be 305f 97bd
00000200: cc44 113d ca32 8f3d c090 033e f560 c4bd
00000210: 503c f4bd d990 98bd ba08 983d dc8e 1bbe
00000220: 0725 78bd 327e 3e3e 902e 293d 7ddd 21be
00000230: 5402 efbd 110a 15bb 6931 1d3d 0429 e7bd
00000240: aa23 cebd 55e9 74be ad12 b8bd 6036 993d
00000250: f4de 76bd 8822 97bd cbe4 b8bd 550c 2cbe
00000260: 36ce 903e f4d9 dfbd b0a2 2c3c 5abb 6f3d
00000270: adb5 113e a66d 80be ad7f 47bd a129 eb3c
00000280: 9393 50be 93a0 7fbe f6de 03be 4c5d e4bd
00000290: c765 893c 3bee 87bc d87d 1ebe 679a 123e
000002a0: 733b b63d 4333 a0bc 063f b4ba 0758 89be
000002b0: d2b2 a8be e885 ecbd dcac 1a3b 4524 5dbe
000002c0: cf53 8cbd be53 1d3e 08d3 a1bd 5bbf 3dbc
000002d0: 9235 07bd 8300 75be 9a87 93bd 8452 19bd
000002e0: 6991 063e 0156 38bc 7702 183e 5027 bb3d
000002f0: 59d5 853d c604 19be 16c5 41be da81 9a3d
00000300: db2a bd3e 7f10 053e 25db 9e3c 40ff 72be
00000310: 5669 a63e 7c85 303e 680b f3bd 0976 e43a
00000320: 5420 a4be 48ed ae3d 5f47 c2bd f3a2 9abe
00000330: f4d3 babe 1aff d93d 7555 4ebd 8654 e2bd
00000340: 0bc4 3d3f ed37 1d3e 60f1 5fbe 32cf d4be
00000350: a948 9fbd e03b 2cbd d52d dabd 29d6 48be
00000360: a982 b1bd 1243 6d3d bdd2 a3bc 7e1e b7bd
00000370: 4e11 c2bd a678 133e ce7f d13d d291 7abe
00000380: aedc 983e 2273 1cbf 09a1 473e c2cb 11bd
00000390: 2cbc 193d 5665 853d d5e9 a2bd 2d0a 20bd
000003a0: 19cf 5a3e c242 47bc a850 c23c f8bb 82bd
000003b0: a7ff e53d 1e58 993d be94 9cbe 085c 17be
000003c0: 2754 81be e6f4 f1bc 4fa7 ec3c 5197 bdbd
000003d0: d22b 4dbe 3d87 c3be 6d02 c13d 58c7 48be
000003e0: b26c 023d 8a48 223e ecef 2a3c 0b07 24be
000003f0: 408d 1cbc 5403 28be d183 823e 9da3 a4bd
-0.075059265 -0.02108488 -0.008426341 0.057349164 0.032973323 -0.054660413 0.055014487 -0.076271184
-0.0571219 -0.14035325 0.036119606 -0.03374567 -0.10392651 -0.11504868 -0.07063373 -0.09970354
-0.050939098 -0.10576246 -0.090487316 0.033897933 -0.07918825 0.05087948 0.008513406 -0.076636374
0.021163484 0.076191425 -0.014874486 0.013550654 0.10146546 -0.04599691 0.027475417 0.05129341
-0.14329621 0.07380961 -0.098886035 -0.00642021 -0.09105356 0.025156878 -0.10053763 -0.0751911
0.021597624 -0.09307783 -0.029235953 0.074468695 -0.15842244 -0.08122079 -0.11724852 0.08356293
0.004702288 -0.104877606 -0.1400534 0.06460041 0.05217425 -0.10768244 -0.0061751553 -0.061070234
0.015961645 -0.11755568 0.032356873 0.08022713 0.005493664 -0.07507529 -0.013550799 0.053935066
-0.15669538 -0.12294185 -0.104002476 0.012806799 -0.14461997 -0.052008577 -0.05579235 -0.3980852
0.050905455 0.03852242 -0.1276372 -0.07262784 -0.09544338 -0.1640128 -0.12451291 -0.05548053
-0.2870624 -0.3939824 -0.0847422 -0.0034667118 -0.0021564658 0.042929158 -0.04256621 -0.09717174
0.4222788 0.24462877 0.06678159 -0.0211896 0.111786574 -0.1650734 -0.16145776 -0.039281514
-0.47423345 -0.2339669 -0.102432035 0.029812545 0.11403128 0.004173087 0.016992478 0.20734797
-0.21551163 -0.05986232 -0.0923713 -0.36755887 -0.3780084 0.11489172 -0.19034666 -0.14920218
0.2221047 -0.0514761 -0.093415946 0.06391497 -0.072834246 -0.3449232 -0.095503196 0.2438582
-0.03034087 -0.006902909 0.16782454 0.054721117 -0.11124966 0.13976127 -0.23491256 -0.073912024
0.035466 0.06992109 0.12848186 -0.095888056 -0.11925566 -0.074495025 0.074235395 -0.15191215
-0.060582187 0.18602827 0.04130417 -0.15807147 -0.11670366 -0.0022741596 0.0383772 -0.1128712
-0.10065396 -0.23917134 -0.08987937 0.07481074 -0.06027122 -0.07379633 -0.09028014 -0.1680158
0.28282326 -0.10930243 0.010536835 0.05852828 0.1422946 -0.25083655 -0.048705745 0.028706374
-0.20368795 -0.24963598 -0.12878022 -0.111506075 0.016772164 -0.01659309 -0.15477693 0.14316712
0.08898058 -0.019555693 -0.0013751693 -0.26824972 -0.3294893 -0.11548978 0.0023601567 -0.21595867
-0.06851923 0.15363976 -0.07901579 -0.011581267 -0.033010073 -0.23925976 -0.07203598 -0.03743221
0.13141407 -0.011250974 0.1484469 0.09138358 0.065348335 -0.14943227 -0.18922839 0.075442985
0.3694676 0.12994574 0.019391606 -0.23730183 0.3250224 0.1723842 -0.1186741 0.0017430197
-0.32055914 0.085413516 -0.09486269 -0.30202445 -0.36489832 0.1064436 -0.050374467 -0.11051278
0.7412726 0.15353365 -0.21869421 -0.41564327 -0.07777531 -0.04204929 -0.10653273 -0.19612946
-0.086674996 0.05792529 -0.019997949 -0.08941363 -0.09475957 0.14401492 0.10229455 -0.24469689
0.29855865 -0.6111318 0.19495024 -0.03559471 0.03753297 0.06513469 -0.07954756 -0.039072204
0.21368064 -0.012161912 0.0237201 -0.063835084 0.112304024 0.0748751 -0.3058223 -0.14781201
-0.25259516 -0.029535722 0.028888373 -0.09257377 -0.20036247 -0.38189116 0.09424291 -0.19607294
0.03184194 0.15847984 0.010433178 -0.16018312 -0.009555161 -0.1640752 0.25491193 -0.08039019

predictionFunction.value_head.0.bias f4 [64]
00000000: f7ad 14be 6f67 debd febd 4f3d 2853 3abe
00000010: 9175 403e af1d 343d 5535 4bbd 1120 6dbe
00000020: a2e5 103e b2da bfbd aaf0 9fbd 27f5 4fbc
00000030: 1947 75bc d541 44be 7122 f3bd 866d 41be
00000040: 4315 2fbe 6499 8ebd c3c4 1bbd 6242 bf3e
00000050: 985d 4dbd 386b 14be 9505 a53e 1fcd 8dbc
00000060: 3642 4b3d c9ba 33be 157d cbbd 60de 87bd
00000070: 0f39 0abd ee35 4fbd 24f4 e83d e346 313e
00000080: 99ac dbbd ec64 4d3d 02ce 303e 2bbc 2c3b
00000090: 3180 35be bff9 cbbc ece5 c3bc d93a 06be
000000a0: e8eb 26be f6a3 0d3d e9d5 fdbd 731a 6fbd
000000b0: b66a d43d f8b7 5b3d d4c9 10be 5d6a f0bd
000000c0: cf83 12be e0f6 55be 3ed9 b73c def2 6c3b
000000d0: 99f6 2bbe 5f0a 493d d21c 30be de9d 4a3e
000000e0: cd61 c03d 4917 3cbd 997f cfbd 25e7 13be
000000f0: 43a4 913e 3a9a 663d 8b70 443e 8fcc 7abe
-0.14519487 -0.10859572 0.0507183 -0.18195784 0.18794848 0.04397362 -0.04961141 -0.23156764
0.14150098 -0.09367885 -0.07809575 -0.012692726 -0.014970564 -0.19165738 -0.118718036 -0.18889436
-0.17097954 -0.06962851 -0.038029443 0.37355334 -0.050138086 -0.14494026 0.3223082 -0.017309723
0.04962369 -0.17551722 -0.09935967 -0.066342115 -0.03374582 -0.05058854 0.11374691 0.17312197
-0.1072628 0.050145075 0.17266086 0.0026357274 -0.17724682 -0.024899362 -0.023913346 -0.13108386
-0.16300929 0.034580193 -0.12394316 -0.058374833 0.10371916 0.053642243 -0.14139491 -0.11739037
-0.14308093 -0.20894957 0.022442456 0.0036155502 -0.16793288 0.049082156 -0.17198494 0.19786784
0.09393654 -0.045920644 -0.10131759 -0.14443643 0.28445634 0.056299426 0.19183557 -0.24492095

predictionFunction.value_head.2.weight f4 [41, 64]
00000000: 4772 9bbd 2548 2dbf a2c2 86be e22c c2be
00000010: 7fe5 53bf a9a5 21bf a16c 3cbf b896 45bf
00000020: 6f32 61bf ca72 60be 80af 0e3d b44c 12be
00000030: 246f dfbe bac8 00bf f6b8 53bf d6a7 edbf
00000040: 98d9 8abe d2e8 64be 6f0c 6ebf fa6a 8fbf
00000050: 1df3 eabd e0b2 debe 1856 80bf bc49 6bbf
00000060: 6a50 11bf 944a 9c3d 12b4 213b 5055 3dbd
00000070: e556 38be b0d9 41bf 9f40 69bf beba 9dbf
00000080: 4c18 a6be 717b 55be 62e5 28bf 9fb5 c3be
00000090: 8787 bdbe 931a a2be d2b2 9cbf e454 8dbe
000000a0: d090 92be 8c06 47bf 532b bfbd 91c0 11bf
000000b0: 0736 5dbf 76c1 3abf e80a 1fbe 9f32 a73d
000000c0: 525d 393c a2ec 47bf 014f 04bf a173 25bf
000000d0: bf67 04bd 4d8f 47bf e77a dabe 2ce9 49bf
000000e0: 0012 65bf 68e2 2cbd ca22 e9bd ab94 90bf
000000f0: de29 02bf b829 97be 16cb 5abf af9d f3be
00000100: 7025 b1bc efa6 3ebf e70e cabd b073 bcbe
00000110: e570 4ebf 2733 31bf 751c 25bf 623d 2bbf
00000120: 6101 60bf 3e99 9bbe 3d33 87bd 2810 a0be
00000130: d63c 22bf 4cc6 0abf 8e6c 48bf ae56 f2bf
00000140: b74e e3bd 5e84 3abe 6fd5 8abf 0f94 85bf
00000150: a7bc 8abd 6374 c7be 3a2d 8ebf c6c2 6dbf
00000160: ad8e e3be e745 423d 5189 0ebc f40b 7d3c
00000170: 237f 97bd c889 0fbf b213 63bf 22c1 90bf
00000180: 09eb f9bd ccb1 72be 3dd5 31bf 2360 b1be
00000190: 864c 04bf d58b dbbe ca69 90bf 9cd6 14be
000001a0: 3236 2abe e2b5 1cbf 2d2e 16bd be56 21bf
000001b0: 5fcb 54bf 3019 5cbf 6a1d f6be e739 97bd
000001c0: 1312 c23c 5d64 78bf ca7d f3be 3210 18bf
000001d0: 2e52 b73c f15f 0dbf 8899 14bf 3e61 4cbf
000001e0: 0e2e 61bf aeea 3ebd 77aa 36be cc40 8bbf
000001f0: e666 12bf 3178 91be 14f1 6fbf 1f4c c5be
00000200: 3011 7abd d47a 46bf 3faa 24be cc26 d0be
00000210: cda5 6ebf 222e 27bf 6d3d 42bf 1678 1ebf
00000220: f196 5cbf 647f 9ebe 96cc 693d 0086 69be
00000230: e1d5 05bf fe7f f0be 5ddf 73bf 421c f5bf
00000240: bdf7 8dbe 7c84 90bd a57c 7ebf 060f 73bf
00000250: 10f8 b63c 8733 95be 8423 95bf b846 76bf
00000260: 3ba7 02bf 002e c13d a354 813c c86b b0bd
00000270: 8cb8 2ebe 40e3 3dbf e325 71bf 6ce2 8abf
00000280: 5f14 0cbe 70a7 c1be 8284 38bf 6770 71be
00000290: e0ef e1be 4b1e cabe f99e 9bbf a1de fbbd
000002a0: 4f7c 3fbe 1a19 31bf e686 8cbd 40c5 40bf
000002b0: 4a3c 53bf 9b04 5dbf bae2 6abe b13c b53d
000002c0: 4234 84bd 0efc 53bf fd38 33bf 4dc0 1ebf
000002d0: 5b85 e33d 1c03 1dbf 71ed 00bf 76ba 4bbf
000002e0: 5bee 52bf 636a 88bd 34b9 65be ee9e 8fbf
000002f0: b801 1dbf c8b7 d5be 49a4 6bbf 6d46 05bf
00000300: 3bd5 94bd 6f64 1ebf fdc4 99be a0ee c2be
00000310: 079f 50bf bc5c 35bf cc60 18bf aca7 25bf
00000320: f0d6 52bf 5100 8fbe e3d2 15bc d1fe 06be
00000330: 0981 08bf 4a58 f5be 731f 51bf e7bc 07c0
00000340: e804 03be f65c 05be 4ee9 8dbf 7b18 80bf
00000350: 2a3b b7bd 0bf6 acbe a201 92bf 6ef8 57bf
00000360: 2355 babe cd87 20bd 1f92 0d3d 1356 603b
00000370: a1dc 2ebe e77d 26bf 7861 42bf 1170 9fbf
00000380: 5780 0bbe f256 1fbe d72a 31bf 6982 9cbe
00000390: ee06 e9be c06e 5fbe 52a7 a4bf 2b28 12be
000003a0: d059 acbe 047c 46bf 4102 c13d dac1 25bf
000003b0: 8713 66bf e567 38bf 1145 edbe 07a8 d83d
000003c0: 13ed 85bd 12c6 6dbf 8d5c 0abf be98 29bf
000003d0: 008f ebb9 8239 41bf f1e9 e2be 8212 54bf
000003e0: 3ef9 6fbf fcde d6bd 43b9 7dbe f3af 81bf
000003f0: c4e4 13bf 41ac e8be 8125 5bbf 9f35 c8be
-0.07590156 -0.6768821 -0.26320368 -0.37924868 -0.8277206 -0.631434 -0.73603255 -0.77183104
-0.8796758 -0.21918789 0.03483534 -0.14287072 -0.4363948 -0.50306284 -0.82704103 -1.8566844
-0.27119136 -0.22354439 -0.9298772 -1.1204522 -0.114721514 -0.43495846 -1.0026274 -0.91909385
-0.5676333 0.07631412 0.002467398 -0.04622394 -0.18001898 -0.7572279 -0.9111423 -1.2322614
-0.32440412 -0.2084787 -0.6597501 -0.38224503 -0.37017462 -0.316609 -1.2242072 -0.2760383
-0.28626108 -0.77744365 -0.09334435 -0.5693446 -0.86410564 -0.7295145 -0.15531504 0.08163952
0.011313753 -0.7809545 -0.5168305 -0.6462956 -0.032325502 -0.77953035 -0.42671892 -0.7887142
-0.8948059 -0.042208105 -0.113835886 -1.129537 -0.50845134 -0.29524016 -0.85466135 -0.4758124
-0.021624297 -0.7447347 -0.09866124 -0.36807013 -0.80641013 -0.6921868 -0.64496547 -0.6689054
-0.87502104 -0.30390352 -0.0660157 -0.31262326 -0.6337408 -0.54208827 -0.7829064 -1.8932703
-0.11098998 -0.18214557 -1.0846385 -1.0435809 -0.06774264 -0.38955984 -1.1107552 -0.92875326
-0.4444479 0.047429945 -0.008699731 0.015444744 -0.07397296 -0.5606961 -0.8870193 -1.130894
-0.122030325 -0.23700637 -0.69466 -0.3464366 -0.51679265 -0.4288012 -1.1282284 -0.14534992
-0.16622236 -0.6121503 -0.03666513 -0.63022983 -0.8312282 -0.85975933 -0.48069316 -0.07384091
0.02369026 -0.9702814 -0.47556907 -0.5939971 0.022378054 -0.5522452 -0.5804677 -0.7983588
-0.879609 -0.046610527 -0.17838465 -1.087915 -0.5718826 -0.2841201 -0.9372723 -0.38534638
-0.061051548 -0.7753117 -0.16080569 -0.406546 -0.9322174 -0.6530477 -0.7587498 -0.61901987
-0.8616782 -0.30956566 0.057079874 -0.22805023 -0.5227948 -0.4697265 -0.952627 -1.9149249
-0.27728072 -0.070565194 -0.9940894 -0.949448 0.022335082 -0.29140875 -1.1651464 -0.9620166
-0.51036423 0.09432602 0.015787428 -0.08614308 -0.17062587 -0.7417488 -0.94198436 -1.0850348
-0.13679646 -0.37823057 -0.7207719 -0.23578034 -0.44128323 -0.39476237 -1.215789 -0.122983225
-0.18699764 -0.69178927 -0.06861667 -0.7530098 -0.8251387 -0.8633515 -0.22938052 0.088494666
-0.0645528 -0.8280648 -0.7000883 -0.6201218 0.1110942 -0.6133287 -0.50362307 -0.7958139
-0.8239495 -0.06660917 -0.2243393 -1.1220376 -0.6133075 -0.41741776 -0.92047554 -0.52060586
-0.07267233 -0.61872 -0.30033103 -0.3807268 -0.81492656 -0.70844626 -0.595227 -0.6470897
-0.8235922 -0.2792993 -0.009144518 -0.13183142 -0.5332189 -0.47918922 -0.8168861 -2.1209047
-0.1279484 -0.13023743 -1.1086824 -1.0007471 -0.089468315 -0.33781466 -1.1406748 -0.8436345
-0.3639308 -0.03919201 0.03456318 0.0034230992 -0.17076351 -0.6503586 -0.75929976 -1.2456075
-0.13623177 -0.15560511 -0.69205993 -0.30568245 -0.455131 -0.21819592 -1.2863562 -0.14273135
-0.33662271 -0.7753298 0.09424258 -0.6474892 -0.89873546 -0.7203353 -0.46341756 0.10578924
-0.06539359 -0.92880356 -0.5404747 -0.6624869 -0.00044929236 -0.75478375 -0.44319108 -0.8284074
-0.9373969 -0.1049175 -0.24777703 -1.013182 -0.57770944 -0.4544392 -0.856041 -0.3910341

predictionFunction.value_head.2.bias f4 [41]
00000000: 3d43 68bf 3a73 72bf dda3 5ebf dd1d 65bf
00000010: 2326 73bf 28ca 71bf c801 61bf e762 4dbf
00000020: be79 79bf 96c7 55bf 38da 57bf 438b 5abf
00000030: b302 57bf 11f0 80bf 5bb8 82bf cc91 7abf
00000040: 7a9d 49bf 185d 71bf 180e 86bf 8bda 7fbf
00000050: 6c22 07bf f712 03bf 6c0e bbbe 6611 0ebf
00000060: 863a 3ebe 1556 15be 0e31 2c3d 36b8 2cbe
00000070: f838 75bb af6f 90bc f58f d03b 6761 8cbe
00000080: 7c01 85bf 7961 61bf 17bc 7fbf 26c8 73bf
00000090: 8708 7ebf 5b42 7bbf 9c78 69bf 4476 85bf
000000a0: 4693 7ebf
-0.907276 -0.9470707 -0.86968786 -0.8949869 -0.94980067 -0.9444909 -0.8789334 -0.8022904
-0.9745139 -0.8350767 -0.8431735 -0.85368747 -0.83988494 -1.0073262 -1.0212511 -0.9787872
-0.78755915 -0.94282675 -1.0473051 -0.99942845 -0.527869 -0.51200813 -0.3653444 -0.554953
-0.18577012 -0.14583619 0.04203897 -0.16867146 -0.003741799 -0.01763138 0.0063648173 -0.27418062
-1.0391078 -0.88039356 -0.9989638 -0.9522728 -0.9923176 -0.98148125 -0.9119966 -1.0426717
-0.9944347

dynamicsFunction.startBlock.0.weight f4 [64, 34]
00000000: 7af5 203e ed0c 833e b78a 4fbd 1958 b63d
00000010: eadf ff3d 122e 523e 1175 f3bc 20be 0ebd
00000020: e8c8 6ebd ecc5 e3bd bd8a 893e 8fe9 4b3d
00000030: e107 ee3b 9373 113e 56dd 96bb b13b a43e
00000040: 6591 073e befe ed3d aed9 4ebd 489a 263e
00000050: 0a57 523e 2042 123e 5a08 05be 9e38 0c3e
00000060: 3e12 7b3e ab3a e83d 891e 513e 5ade 5d3d
00000070: e4f4 8e3e ab3a 8ebc 577f dbbd 11a0 3c3d
00000080: 8f3c 5f3e db0f 5dbe 7d57 79be 3a9a f43d
00000090: 9fad 0ebe 51b8 94bd 24b6 cdbd 49c6 8c3e
000000a0: ea2c 7cbe 77ef dabc ede1 eabc 8788 753e
000000b0: 1e07 10be 69d2 923d 8ccf 543e 6426 833e
000000c0: bb6c 6c3e ee73 303d e279 aabd 4172 e13d
000000d0: 404d eabd a81f 10bd e490 38bd d56f c3bc
000000e0: 2201 9a3c fccf ea3d f5c5 4e3e 1bcf f93d
000000f0: 84ad a73d 4eee 9e3e c845 ffbd ace3 05bd
00000100: 923a 07be 00f0 253e c74d 273e 963d 9dbe
00000110: 441b 23bb 48d0 c9bb 7536 c23e e46f 79be
00000120: 5cc2 813d 5e6a b8bd 0f72 4b3e b9fd b7bd
00000130: 7675 853d f521 04be bfb9 563e 732d 0d3e
00000140: e88c 44be 9f03 1bbe e0b5 ff3c 7132 e9bd
00000150: 45bd 9ebd 7569 a83a cb1a 37be 14ec e13d
00000160: ab53 213e 8efe 71be 7626 27be 049c 0ebe
00000170: 2c26 9fbe 4afa 83be d272 34be 43d7 b9be
00000180: af79 e33d d207 90be 029b ec3e 8d92 463e
00000190: bf2b eabd 7210 2a3e 923d 9c3d dfe9 44be
000001a0: 8414 983d 9740 c83e 4b0a 083f 229e 3cbe
000001b0: b958 013e 8b33 9fbd 48e7 823e 4d15 263e
000001c0: 9e11 df3c ae15 533e a111 02be 6770 b1bd
000001d0: 18de 1a3d e433 bfbe 4972 8b3b 4d67 aabd
000001e0: b4ca 033e e5f2 c2be a2a2 03be 9441 03be
000001f0: 29da b43d dfea 12bd f689 bdbc d4c5 35bd
00000200: b2dc 35be 3b7a 2b3e d6da 82be 5799 a53d
00000210: ce75 70bd 4893 88be fc35 4a3d cdc6 e13c
00000220: cbd2 4c3c 6baa 62bb 4641 6abe 9d3b e63e
00000230: ba00 473e aa94 9cbd 638d df3c c363 c9be
00000240: d883 05be 2944 c9bc 63a4 dc3b d5d5 8abd
00000250: f200 363e 125a 77bd d61d c5be 20c0 c43d
00000260: 0c32 6bbb f78d d1bc e377 3fbe 62ae 73be
00000270: 54be 58be 85d5 03bd fec7 aabd e382 95bd
00000280: dd5f 283e 9bbb 523e 4580 3b3e 1501 bf3e
00000290: ce8f 4e3d 178a bcbd 1d27 a33d aefa 49bd
000002a0: d596 27be f905 bdbd 8ab1 99bc 5cb6 36be
000002b0: a1d4 2d3e e4da 4dbc d749 85bd 0ad6 2dbe
000002c0: 9130 36bc 2232 60be bcbb ac3d 63a8 e03d
000002d0: 844a 433d a4dd 013e 9dc0 083e 334f 2b3c
000002e0: f6f7 943d 907d 3cbe c53f 39be a61c 573e
000002f0: ad4b aebd 8f87 b5be 53c9 eebd 1d78 71be
00000300: 5f94 423d bc6a 06be ba7b 26be d239 6dbe
00000310: 73d8 f2bc b2ac 7f3e 2f2f 843d 8453 e33d
00000320: e046 593e 20f5 14be a003 15bd ff3c 86bc
00000330: 7a4c 7c3e a8c8 923d 22ab 0ebb 057c cabc
00000340: add5 603e a308 50be ecd3 f0bd ca29 17be
00000350: eb41 043e 009d cf3c 1a77 1dbb 2bf7 0e3e
00000360: 7bea 8ebe 710c 54be 7e17 94bd ca85 cfbd
00000370: 1f88 253e ebd1 b9bd 4639 e5bd 8eae 833a
00000380: 8b74 043e 4829 093e 4409 80be 1cb9 cd3b
00000390: a291 4e3d dbb0 86be 5d78 dfbd be05 29be
000003a0: b8b3 0e3e 6120 ebbc bfe1 793d cd74 3fbe
000003b0: 7789 debe 3a88 d33e 745d eb3c 3db0 61bc
000003c0: cf5b 493e ad56 273d b043 9cbd 422c ed3b
000003d0: 2e45 55be 91b6 523c 41e1 96bc 7eab f23c
000003e0: 6fad 81bc 1d28 0f3e e474 7c3d e8fc b8bc
000003f0: 5332 ac3c 08f7 313d 03a0 c93c 5695 fb3d
0.15718642 0.255958 -0.0506694 0.08903522 0.1249388 0.20525387 -0.029718908 -0.034849286
-0.058297068 -0.11121735 0.2686366 0.049783286 0.007264123 0.14204244 -0.004604022 0.3207679
0.13239057 0.11620854 -0.050500564 0.16269791 0.20541015 0.14283037 -0.12991467 0.13693473
0.24518678 0.11339315 0.20421804 0.05416713 0.27921212 -0.01736196 -0.107176475 0.04605109
0.21800445 -0.2158808 -0.2434978 0.11943479 -0.13933419 -0.07261718 -0.10044506 0.2749503
-0.24626508 -0.026725514 -0.028672183 0.23977862 -0.14065215 0.07169039 0.20782298 0.25615227
0.23088352 0.04307931 -0.083240286 0.1100812 -0.114405155 -0.03518644 -0.045060053 -0.023857037
0.018799368 0.11465451 0.20192702 0.12197705 0.08187392 0.31041187 -0.124644816 -0.032687828
-0.13205937 0.16204834 0.16338263 -0.3071105 -0.0024888078 -0.0061588623 0.37932172 -0.24359089
0.06335899 -0.09004663 0.19867729 -0.08983941 0.065165445 -0.12903579 0.20969294 0.13786869
-0.19194376 -0.151381 0.031214654 -0.11386574 -0.07750944 0.0012848811 -0.17881314 0.110313565
0.15754573 -0.23632261 -0.16323265 -0.13926703 -0.3108381 -0.25776893 -0.17621925 -0.36297044
0.11107194 -0.28130966 0.46212012 0.19391842 -0.11434125 0.16607836 0.07628931 -0.1922984
0.07425788 0.39111778 0.53140706 -0.18419698 0.12631501 -0.07773503 0.2556708 0.16219063
0.02723008 0.20613739 -0.12702037 -0.08664017 0.03780946 -0.37344277 0.004255567 -0.08320484
0.12870294 -0.3807594 -0.12855008 -0.12817985 0.08830673 -0.03586852 -0.023137074 -0.044378117
-0.1775997 0.16745846 -0.25557584 0.08085888 -0.058706097 -0.26674867 0.04936789 0.027560616
0.012501429 -0.003458644 -0.22876462 0.44967356 0.19433871 -0.07645543 0.027289098 -0.39333925
-0.13038576 -0.024568634 0.0067334636 -0.067790665 0.17773798 -0.060388632 -0.38499326 0.096069574
-0.0035887985 -0.02558039 -0.18698077 -0.2379699 -0.21166354 -0.03218605 -0.08338927 -0.07300355
0.16442819 0.20579378 0.1831065 0.37305513 0.05043011 -0.09206026 0.07966445 -0.049311332
-0.16366132 -0.09229655 -0.018761415 -0.17843002 0.16975643 -0.012564395 -0.065082245 -0.1697618
-0.011119978 -0.21894124 0.08434245 0.10969617 0.047678486 0.12682205 0.13354726 0.010455894
0.07273857 -0.18407273 -0.18090732 0.21007022 -0.08510528 -0.35454985 -0.11659493 -0.23580976
0.04750478 -0.13126653 -0.16258135 -0.23166588 -0.029644227 0.24968222 0.06454312 0.11099914
0.21218443 -0.14546633 -0.03638041 -0.016386507 0.24638548 0.071671784 -0.0021769484 -0.02471734
0.21956511 -0.20315795 -0.11759171 -0.14762035 0.1291577 0.025343418 -0.002402729 0.13961475
-0.2791327 -0.20707871 -0.07231043 -0.1013294 0.16165207 -0.09073242 -0.11192565 0.0010046528
0.12935083 0.13394654 -0.2500707 0.0062781703 0.050431855 -0.26306805 -0.10911629 -0.16506097
0.13935745 -0.028701963 0.061006304 -0.186969 -0.43464252 0.4131487 0.028731085 -0.013774929
0.19663928 0.040854145 -0.07630098 0.007237942 -0.20827171 0.01286091 -0.018417956 0.02962279
-0.01582977 0.13980146 0.061634913 -0.022581533 0.02102009 0.043448478 0.024612432 0.12284343

dynamicsFunction.startBlock.0.bias f4 [64]
00000000: e920 933d 65f3 e93d 36c9 603d ba1f e0bd
00000010: 72bc 23be 69d6 04be a957 393e bac8 2cbd
00000020: de26 323e cb5c 363d c85f 62bd a3a9 123e
00000030: 08cb 69bc d2b7 f43d 18dd 8f3d 6d61 3dbe
00000040: e646 14be 1510 573e a547 d8bc 31ae 1fbe
00000050: 0900 04be d6e9 803c 86c4 25be a525 bbbd
00000060: 9092 813d a417 e23d f24e 593e 7201 bcbd
00000070: e771 49be 7587 f13d ea20 07bd 7f8a ebbd
00000080: f95a fe3d 3599 b6ba 4c07 ee3d 7faa 7e3d
00000090: 945d 953d 8f69 00bd 1959 523c 9d32 68be
000000a0: 2209 ca3c af2f 2e3d d66c 25be 69db 523e
000000b0: 65d1 febc 8f69 a73d a867 373a 636b 26bd
000000c0: d4b7 eb3d 6a94 ff3d 66fd 603c 83c3 d7bd
000000d0: 9ad9 a93b 94f6 1b3d 83f1 0fbd 2017 c6bd
000000e0: bb8f 00bc 5042 a73d 04a8 3bbd f918 343e
000000f0: 2955 df3d 6d9f 863d 7d73 e93d 5fa1 b53d
0.071840115 0.11423377 0.05487939 -0.10943551 -0.15989855 -0.12972416 0.18099846 -0.042183615
0.17397639 0.044522088 -0.055267125 0.14322524 -0.014269598 0.119491234 0.07024592 -0.18494196
-0.1448017 0.21002229 -0.02640135 -0.15593792 -0.12890638 0.015736502 -0.16188249 -0.091380395
0.06326783 0.11039665 0.21221521 -0.09179963 -0.19672357 0.117934145 -0.032990374 -0.115010254
0.124196954 -0.0013931157 0.116224855 0.062174316 0.07293239 -0.03135067 0.012838625 -0.22675557
0.024662558 0.042525943 -0.16154799 0.20591511 -0.031105706 0.081744306 0.0006996342 -0.040629756
0.11509672 0.124794796 0.01373229 -0.10535338 0.005183411 0.038076952 -0.035142433 -0.096723795
-0.007846768 0.08166945 -0.04581453 0.17587651 0.10904915 0.06573377 0.11398981 0.0886867

dynamicsFunction.startBlock.2.weight f4 [32, 64]
00000000: f4be 26bd 6d4e 3abe ac0c 403d 443e 87bd
00000010: 14a2 49be 6e36 f6bd 5c41 593e 2267 9d3d
00000020: b95f ff3d 2f1a 25bc 1f29 2bbe edba 1f3d
00000030: ea9e db3d 1eb2 683e ead4 3ebd fffc cfbd
00000040: 38d3 92bd 3be8 9fba dc22 293c 2a12 42be
00000050: 3b0d 14be eecd 8cbd 1b6e ae3d b107 adbd
00000060: d859 33bc 5eea 2b3e 868d 123e 748d 06bc
00000070: 653c d33d 063c b6bc bb75 5a3b cf95 3a3c
00000080: bebc 0abd ce66 96bc 4242 4b3d 5e3f bcbe
00000090: 22cc 61be 6cb8 f4bc 0cf6 5f3e bec6 23be
000000a0: 9f22 13be c3f5 20be 6c49 4f3e e0b8 77b9
000000b0: 96c6 72be 0ea6 94bd 15fb a5bc 33d3 bc3d
000000c0: 70ba 0bbe 6eb3 373e a2a5 21be 549d 353e
000000d0: 60ba 423e 18ab 89bd 0014 69be 6164 20be
000000e0: 613a 93be 5215 a03d 43c8 933e f90b 4f3e
000000f0: 4a6e f93d f537 0abe c186 de3c 4df5 88be
00000100: fc82 69bd b2ba 143e 7907 babe 2776 93bd
00000110: 27ed 0e3c b939 2fbe 1ecd 26be 72fd 9c3c
00000120: 2714 87be adb4 8a3d 6417 463e 509d f5bd
00000130: 8307 a1bd eea1 fdbe 8c28 cebd 4802 23bd
00000140: c498 053f 93fd cdbd 9294 83ba df96 353e
00000150: 7db1 143e 391f 6f3d c3aa 8f3d 030e a43d
00000160: c7c2 26bd ae11 9d3e 4f29 d2be 9664 083e
00000170: a596 81bc b422 80be 6933 e6bd be49 803e
00000180: 065d 593b 2c06 aebc 652e 83bb fcde 07be
00000190: 95f4 753e 2b83 b4bc e3da 003d f746 2f3e
000001a0: 54ce 48bd 12d5 8c3e 3e47 013e d291 00be
000001b0: 297f af3e 9d30 e93d e0b7 213d 7403 de3d
000001c0: ec5a 5a3d 504c 04bf 2e59 25bb 8b70 47be
000001d0: 1fbf 903e b81b 5f3d 14eb 073e 3632 333e
000001e0: 9b6b fc3c fd76 d03d a9ed 0f3e 5490 87bd
000001f0: aecb e6be 4ac3 e6be 567c b83d 0a0e 3fbe
00000200: 7050 993d b7e2 3abe 1860 bd3e 153a 94be
00000210: 0294 00bd e1a2 3d3e af71 513d 82c1 e9bd
00000220: a233 60bc 5e24 203e 706e c6bd e150 023e
00000230: 97bc 473e 338d a83e 3c20 0e3e 80f9 36bd
00000240: b022 0ebe c534 e83e 42ba f8bd 9ef7 01be
00000250: 957e a1bd f2df 843e fbce 933d 0e11 de3d
00000260: f030 153d f6c1 2abe 6a94 623e 4dcb d4bd
00000270: 7a99 d9bd eeab a63d 09d4 4dbe 6b15 26be
00000280: 5c6c 593e db48 be3d 3b2a 8fbe e07b f43d
00000290: be36 92be 4e1a dbbd ca03 57be c6ef a5bc
000002a0: baa4 c4bd 5154 96bd 0335 053d dbf0 bdbc
000002b0: c859 bdbe eaf8 ed3d 0cad 5b3d 45cb a5be
000002c0: 34fe c4bd a88b b13c c2f6 323c a2f2 fd3d
000002d0: eb6f cb3e d29f 20bd f77e 12be 7939 82be
000002e0: cb4f 91be f13c ad3d 4f97 30bd c536 173e
000002f0: 09ef 243d 2592 0c3e 6499 423e a8d8 7e3d
00000300: 91c0 63bd 09c5 283c 0d3d f9bd fb63 1e3d
00000310: dd2b 9a3e d40c 4e3d 70f6 ecba c5f9 823c
00000320: 3c6c 5ebe 15da 0b3e f630 1b3e 51d0 263d
00000330: e00b 1ebe abf8 17be df56 babe 1ccb 4c3d
00000340: 2e3d cc3c 4059 abbe 726a a03e 867b 88ba
00000350: ed97 643c b86f 72be 03ed c6bd 4c86 a73d
00000360: 5d6d 43be ab0e 80bd aace 473d 469a 023e
00000370: f65c 7a3c bed6 f8bd 17a5 253e 342a d93d
00000380: 239d 2fbe 06ec 82bd 1175 1c3e d9f4 2fbe
00000390: 3e5f 9c3d 9814 8a3e 859c b03d f5cf a03d
000003a0: 1fb5 0e3d ae52 813c fffb 003d 6dea d93d
000003b0: 4954 6d3e f8ca 85be fbfb 8abe 02f5 953e
000003c0: 502f d0bd 19b6 cabd 1c8d e1bc 4c22 e1bd
000003d0: 50f8 fd3d a610 9b3d e680 2abd f42f 713e
000003e0: e319 363d b461 22bd 3651 11bd c7f1 85bd
000003f0: 8da3 a53b b1fe 15bd 97b1 12be 333d 3a3e
-0.04070945 -0.1819398 0.046887085 -0.06603673 -0.19690734 -0.120221004 0.21216339 0.07685687
0.124694295 -0.010077043 -0.16714905 0.038996626 0.1072367 0.22724196 -0.04658977 -0.10155677
-0.07169193 -0.0012199947 0.0103232525 -0.18952242 -0.14458172 -0.068752155 0.08517095 -0.08448733
-0.010946713 0.16788623 0.143118 -0.008212436 0.10314254 -0.022245418 0.0033334333 0.011388256
-0.033871405 -0.018359568 0.049623735 -0.36767095 -0.22050527 -0.029873095 0.21871203 -0.15993783
-0.14368676 -0.1571875 0.20242852 -0.00023624627 -0.23708567 -0.07258235 -0.020261327 0.092199706
-0.13645339 0.1793954 -0.1578584 0.17735797 0.19016409 -0.06722087 -0.22761536 -0.15663292
-0.28755477 0.078165665 0.28863725 0.20219411 0.12179239 -0.13497908 0.027163865 -0.2674965
-0.057009682 0.14524344 -0.36333826 -0.0720027 0.008723534 -0.17111863 -0.16289183 0.01916382
-0.26382563 0.067727424 0.1934486 -0.119928956 -0.07862761 -0.49537605 -0.100663275 -0.039797097
0.52186227 -0.10058131 -0.0010038784 0.17733334 0.14520831 0.058379386 0.07014992 0.08010485
-0.040713098 0.3067755 -0.4104714 0.1331962 -0.015818903 -0.25026476 -0.112402745 0.2505626
0.0033167019 -0.021243177 -0.0040033334 -0.13268656 0.24019082 -0.022035202 0.031458747 0.17116915
-0.049024895 0.2750631 0.12624833 -0.12555626 0.34276703 0.113862254 0.039481997 0.108405024
0.053309366 -0.51678944 -0.0025230157 -0.19476525 0.28270814 0.054469794 0.13273269 0.17499623
0.030813029 0.10178945 0.14055504 -0.06619325 -0.4507727 -0.4507087 0.0900809 -0.18657699
0.07486045 -0.18250547 0.36987376 -0.28950563 -0.03139115 0.18519165 0.051133808 -0.11413862
-0.013684185 0.15638873 -0.09689033 0.12726165 0.19505535 0.32920226 0.13879484 -0.044671535
-0.1388042 0.4535276 -0.12144901 -0.12692115 -0.07885472 0.25952107 0.07217213 0.10843097
0.036423624 -0.16675553 0.22126928 -0.10390339 -0.106249765 0.08138262 -0.20100416 -0.16219108
0.21232742 0.0929124 -0.27961907 0.1193769 -0.2855739 -0.106983766 -0.20997539 -0.020255934
-0.096017316 -0.07340301 0.03252126 -0.023186138 -0.3698256 0.11619742 0.053631827 -0.32381645
-0.09618798 0.021673039 0.010923089 0.12399794 0.39733824 -0.039214917 -0.14306246 -0.25434473
-0.2838119 0.08458889 -0.04311305 0.14766987 0.040267024 0.13727625 0.19003826 0.06221834
-0.055603568 0.010300883 -0.12169848 0.038669568 0.3011159 0.050305203 -0.0018078815 0.01598824
-0.21720976 0.1365741 0.15155396 0.04072601 -0.15434217 -0.14840953 -0.36394402 0.049998388
0.024931516 -0.3346653 0.3133121 -0.0010412789 0.013952238 -0.2367543 -0.09713175 0.08179912
-0.19084688 -0.06252798 0.048781075 0.12754163 0.015280953 -0.12150334 0.16176258 0.10603753
-0.17149787 -0.06392674 0.15279032 -0.17183246 0.076353535 0.26968837 0.08623604 0.07852165
0.0348407 0.015786495 0.031490322 0.10640416 0.23176683 -0.26131415 -0.2714537 0.2928849
-0.10165274 -0.098980136 -0.027533107 -0.1099287 0.124008775 0.07571535 -0.041626833 0.23553449
0.04445828 -0.03964396 -0.03547784 -0.06540256 0.005054897 -0.036619846 -0.14325558 0.18187408

dynamicsFunction.startBlock.2.bias f4 [32]
00000000: 64f4 b83c 9ce6 a1be 1bec 973d ad57 07be
00000010: d072 c9bc 5904 643d 039a 293d f92f 113d
00000020: 9f31 0bbe d171 093e 7f11 1e3e 4345 a8bd
00000030: 24a6 eb3d ff4b f93c e4ed ae3d e3f7 3f3e
00000040: bbcd 253e 3b20 8b3c 61d8 323d 1aa6 c03d
00000050: 08ad 39be 900b ccbd e04b 09bd 2ab7 093e
00000060: 1ce9 d3bd 1698 c3bd 49f2 cf3d fdf8 05be
00000070: fbec dd3d e278 393d 946b db3d a290 e5bb
0.022577472 -0.31621253 0.074180804 -0.1321704 -0.02459088 0.05566821 0.041406643 0.03544614
-0.13593148 0.13422324 0.15436362 -0.082163356 0.11506298 0.030431746 0.08541468 0.18746905
0.16191761 0.016983142 0.043663386 0.09406681 -0.18132412 -0.09963143 -0.033519626 0.13448778
-0.103471965 -0.095504925 0.10153634 -0.13083263 0.10836216 0.0452813 0.10713878 -0.007005767
