Scripts/CarRacing/model_0.pt (torch, 945073 bytes, 169 tensors)

predictionFunction.startBlock.0.weight f4 [32, 3, 3, 3]
000000 b7 2b 10 be f7 1d 00 3e 99 d3 05 bd 17 f5 45 be
       -0.14079176 0.1251143 -0.0326725 -0.19331776
000010 eb b1 9e 3a a2 40 91 3e a6 7c 03 be 96 32 8f 3c
       0.0012107467 0.28369623 -0.12840518 0.017480176
000020 6e 2a 98 3d fb 60 2d 3e 4d 9a 81 3d 35 98 77 be
       0.07429968 0.16931526 0.06328259 -0.24179156
000030 72 41 86 be 2f 7e 45 be 4e 37 a3 be 71 c0 86 3d
       -0.26221806 -0.19286416 -0.31878132 0.06579674
000040 26 75 2e 3e 29 01 18 3e 75 e9 a5 be 4c 41 3d be
       0.17036876 0.14844193 -0.32404676 -0.1848194
000050 20 a7 b5 3d d7 19 86 3e 9e aa b5 bd 72 95 36 3e
       0.08869767 0.2619159 -0.08870433 0.17830446
000060 42 d2 24 3d 29 64 0a bd 9c f7 d0 3e d2 8e e6 be
       0.04023958 -0.033786926 0.4081391 -0.45030838
000070 88 a4 2a be 38 4e b8 be 68 5f 85 bd 8a 38 12 3d
       -0.16664326 -0.35997176 -0.06512338 0.03569845
000080 90 17 82 be f8 ac 83 be 6e 19 3b be 35 50 ff be
       -0.25408602 -0.25717902 -0.1827142 -0.4986588
000090 83 03 4b 3d 0f 3b 09 3e a9 83 c9 3d bf 5c 97 3e
       0.049563896 0.13401435 0.09839565 0.29562947
0000a0 2b 8b ee 3d 9e 18 a5 bd 5d b9 7c 3c 49 31 33 be
       0.11647638 -0.08061336 0.015425053 -0.1749927
0000b0 bf 79 ac bd 6d 28 d2 bd 73 56 0a 3e 37 3f b7 3d
       -0.08421659 -0.10261617 0.1350954 0.08947604
0000c0 e2 bb 15 be 55 2b 8b bd 34 24 71 bd 44 b6 a0 3e
       -0.14622453 -0.06795374 -0.058872417 0.31389058
0000d0 3d b6 28 be cf 2e b7 3d 2c 40 29 bb 94 e2 1c bd
       -0.16475768 0.08944475 -0.0025825603 -0.03830202
0000e0 ff e1 c3 3c 67 a8 82 be 81 0e 02 be 3c 9a 3b be
       0.023911474 -0.25519106 -0.12700845 -0.18320554
0000f0 1e 25 63 3e fd 4e a1 bd 27 25 6f 3d 06 80 1a 3e
       0.22182128 -0.07876394 0.05838504 0.150879
000100 a1 50 47 3e 86 ae d2 bd b2 2d 08 3c 7e 8a a9 bd
       0.19464351 -0.10287194 0.008311676 -0.082783684
000110 6c d6 56 3e 76 17 b6 3e 43 29 d5 be c2 f4 48 be
       0.20980233 0.35564774 -0.41633043 -0.19624618
000120 bd 55 a6 3d 89 2c 2b 3e 41 9d b2 bc 53 ce d4 3d
       0.08121822 0.16716208 -0.0218035 0.10390916
000130 3f 06 89 3c 38 a1 a6 be 7e 75 9e 3e 88 60 40 bc
       0.016726611 -0.32544875 0.30949014 -0.011741765
000140 ef 9e b4 be 6c eb 47 3e f6 79 e5 3e 24 4d d8 bd
       -0.35277507 0.195234 0.4481961 -0.105615884
000150 54 64 be 3d f8 75 3d bc f7 3f ca 3d d2 d9 58 3d
       0.0929648 -0.0115637705 0.098754816 0.052942105
000160 c9 f8 ca 3d f4 c7 6f be 31 1e 08 3d 92 ce cc 3d
       0.09910733 -0.2341612 0.033231918 0.10000338
000170 b4 bf 97 bc 63 82 01 3e af 72 5d be 5c 25 68 be
       -0.018524028 0.12647395 -0.2162578 -0.22670501
000180 ef c4 ad 3e b1 a3 83 3e 40 e5 02 be 29 90 02 be
       0.3393931 0.25710824 -0.12782764 -0.12750305
000190 b9 4c c1 3e a0 df 4f 3e 90 3b 1a be 3b 61 05 be
       0.37753847 0.2030015 -0.15061784 -0.13025372
0001a0 67 27 0f be c4 1c 67 bd f0 85 89 be a4 36 67 be
       -0.13979875 -0.056423917 -0.2686 -0.22579437
0001b0 4e de d4 bd 20 9e 5f be 9b e6 30 be 53 29 82 3e
       -0.10393964 -0.21837664 -0.17275469 0.25422153
0001c0 1d 88 7c be 65 72 8b 3e c5 ba fd ba f0 ca 75 be
       -0.24661298 0.27235714 -0.001935803 -0.24003196
0001d0 20 69 2c bd 4e 8d 8c 3d 3a 7e 27 bd 27 af ae 3e
       -0.042092443 0.06862889 -0.040891863 0.34118006
0001e0 59 91 85 3c a0 7e 00 bd 06 ea f8 bd 07 2e a7 3d
       0.016304659 -0.03137076 -0.121540114 0.08163076
0001f0 31 1e 0d be d4 4b 92 bd 2b fc 4f 3d af fe 69 be
       -0.13781048 -0.07143369 0.050777595 -0.2285106
000200 46 00 1d be cb cf ba be 32 26 89 be 07 7b 71 3d
       -0.15332136 -0.36486658 -0.26786953 0.05895522
000210 b6 f1 8f be d1 77 bc bc b2 cb 29 3e c5 d8 67 be
       -0.28114098 -0.023006352 0.1658161 -0.22641285
000220 6b 7b 4e be fa 87 3a 3c 77 21 65 3e 30 d0 8a 3d
       -0.20164268 0.011384958 0.22376047 0.0677799
000230 67 12 94 3e 4a 1b d4 3d fe 98 8a 3e 28 aa 5a be
       0.2892029 0.103567675 0.2706985 -0.21353972
000240 eb 89 a0 be 69 d7 b3 3d f0 51 4f 3e 5e cf 0e be
       -0.31355223 0.087813206 0.202461 -0.13946292
000250 03 f4 ce 3c a3 bc 4d be fc c9 bc be 98 5a d9 bd
       0.025262838 -0.2009149 -0.36872852 -0.106129825
000260 6c 08 b1 bd 41 47 75 3e d2 43 3d 3e d8 73 bb be
       -0.086441845 0.23952962 0.18482903 -0.3661182
000270 d9 0c 5a 3e 95 af 90 3c 23 73 9c 3c 86 c5 08 3e
       0.21293963 0.017661849 0.01909787 0.13356599
000280 58 4e 63 3b 47 b5 4f bd ea f9 69 be 7b 05 af be
       0.0034684148 -0.05070999 -0.22849241 -0.3418387
000290 92 9b 06 3b f8 6e 93 bd 7a fa 67 bc b3 53 18 3d
       0.0020539504 -0.071989 -0.014158839 0.037189197
0002a0 f8 7f c3 be 99 0f 0f 3e 6b 87 f3 3d ce 78 64 3d
       -0.3818357 0.13970794 0.11891063 0.05577927
0002b0 c0 cd 9c 3d bd e7 cc 3d 87 33 cc be 11 54 96 3d
       0.07656431 0.10005138 -0.39883062 0.07340253
0002c0 cb f9 f9 bd e3 b8 08 bd 12 69 23 3d 0d 6b 2d be
       -0.12205847 -0.033379447 0.039895125 -0.16935368
0002d0 71 b1 70 3e ca 62 fe bd 59 a9 a2 3e 6c 2d 5b 3e
       0.23505189 -0.12421186 0.31769827 0.21404046
0002e0 fb 2b 65 3e 1f 32 5b 3e 03 be bd bd c2 92 3c 3d
       0.22380058 0.21405838 -0.092647575 0.046038397
0002f0 eb 3f a5 be 8e 20 71 3c d4 46 64 3e 16 ad 7e 3e
       -0.32275328 0.014717234 0.22292644 0.24870715
000300 2a 96 81 be 54 8c a1 bd 89 69 59 be 3e f5 b5 bd
       -0.2530988 -0.078880936 -0.21231665 -0.08884667
000310 a6 ef 92 3c 3f c7 22 3e 36 cd 02 3e e0 59 99 3d
       0.017936539 0.15896319 0.12773594 0.074878454
000320 e0 8f 37 3e 12 a4 e2 3d 4e cc af bd 98 39 97 bd
       0.17925978 0.1106645 -0.0858389 -0.07384032
000330 f2 34 3c be 15 bd 1f 3e c1 0e f7 bd 16 75 19 3f
       -0.18379572 0.15599473 -0.12063361 0.59944284
000340 55 8a 73 3e 02 03 b2 bd f0 13 ec bd 20 1e bc bd
       0.23783238 -0.0869198 -0.1152724 -0.091854334
000350 74 75 98 bc 78 c2 8b be 06 42 b9 bb 58 9c 0b 3e
       -0.018610694 -0.27296805 -0.0056536226 0.13633859
000360 5b 47 9e be fc e9 87 be 5c 16 cd 3e e7 69 22 3e
       -0.30913815 -0.26545703 0.4005612 0.15860711
000370 37 64 99 3d 23 cb 56 3e 01 1c a6 3e 4f 0e 2a bd
       0.074898176 0.20975928 0.3244324 -0.041517552
000380 64 3c 90 be 98 8f c8 3d 5b fe ad bd 35 93 9f bc
       -0.28171074 0.09793013 -0.0849578 -0.019479373
000390 b7 8e cd bd 6e 4d ec bd 25 1b 7d bd 9f 0d ab 3e
       -0.10036986 -0.11538206 -0.061793465 0.3340883
0003a0 48 20 70 bd 08 48 9f 3e ec 68 cb 3c a2 bd df bd
       -0.058624536 0.31109643 0.024830304 -0.109248415
0003b0 55 0f 87 3e d2 4e 38 be cb 95 f0 3c 4f d5 94 3d
       0.26378885 -0.17998818 0.029368302 0.07267248
0003c0 e9 50 10 3e 18 92 08 3e 04 93 03 bd a2 71 29 3d
       0.14093365 0.1333698 -0.032122627 0.041368134
0003d0 21 cc b9 3d a2 41 b8 bd 47 74 5b 3d 25 ac 68 be
       0.090721376 -0.089968935 0.053577688 -0.22721918
0003e0 ad 2c 66 3d 05 67 b3 bd 10 da b7 be 92 9a 88 bd
       0.05619495 -0.08759884 -0.35908556 -0.06670107
0003f0 68 8e 00 3e ed a9 4d bd 5a 95 db bd fc 96 2f be
       0.12554324 -0.050210882 -0.10721846 -0.1714744

predictionFunction.startBlock.0.bias f4 [32]
000000 61 16 44 3e c8 d8 a6 bd 93 68 79 bc a4 53 a7 bd
       0.19149162 -0.081468165 -0.015222686 -0.0817025
000010 21 e3 cb bc d7 e4 39 3d db 00 d6 3c 7b 49 27 bd
       -0.024888577 0.045384254 0.026123455 -0.04084156
000020 a3 d0 44 be 64 d6 29 3c e1 0c e4 bb 40 08 ee 3c
       -0.19220214 0.010366056 -0.006959543 0.029056668
000030 33 6b 16 3e 9d 4e 3b 3e bb 58 ed bd 23 14 3d bc
       0.14689331 0.18291707 -0.115891896 -0.0115404455
000040 da ef a0 bd 49 76 39 be 43 4f 10 be d6 67 32 3e
       -0.07858248 -0.18111528 -0.14092736 0.17422423
000050 6f 6c ec 3d 26 63 d0 3d 9a b4 e0 3d c8 c5 1e be
       0.115441196 0.10175161 0.10971947 -0.15505135
000060 50 be b6 3c bb ab 39 3e 0d 74 dc bd bf 56 2c 3e
       0.022307545 0.18131916 -0.107643224 0.16829966
000070 3b 71 46 3d 56 58 08 3e 71 7e ac bd c0 46 b2 3d
       0.04844783 0.13314947 -0.08422554 0.08704901

predictionFunction.startBlock.1.weight f4 [32]
000000 0f fd 85 3f a9 b1 8b 3f 47 f4 8f 3f 33 85 93 3f
       1.0467852 1.0913593 1.1246423 1.1525024
000010 f4 1c 6d 3f 44 09 5e 3f 0d 72 88 3f ae 25 86 3f
       0.92622304 0.8673289 1.0659806 1.0480249
000020 7f 9a 7b 3f 23 9b 78 3f 96 3a 69 3f b6 d2 88 3f
       0.9828262 0.9711172 0.9110502 1.0689304
000030 d3 dd 61 3f 83 33 8f 3f 00 00 6e 3f fe 72 7d 3f
       0.882291 1.1187595 0.9296875 0.9900359
000040 ae c0 87 3f ff 58 85 3f 17 87 79 3f 2a db 90 3f
       1.0605676 1.0417784 0.97471756 1.1316884
000050 dc 36 87 3f 91 dc 89 3f b9 ec a2 3f a4 25 66 3f
       1.0563617 1.0770437 1.2728492 0.89901185
000060 be 01 9b 3f 41 61 8a 3f 15 49 87 3f 75 2b 84 3f
       1.2109907 1.081093 1.0569178 1.0325762
000070 d7 7b 90 3f 99 2e 96 3f f2 60 8c 3f 5a f6 6e 3f
       1.1287793 1.173297 1.0967085 0.9334465

predictionFunction.startBlock.1.bias f4 [32]
000000 17 a1 aa be c5 ef cd be 63 c9 c6 3d 7c 5e 99 bc
       -0.33326027 -0.40221992 0.0970638 -0.018721811
000010 91 2b 3d be 21 be 1f 3e d2 15 06 be a7 1e bf 3d
       -0.1847365 0.15599872 -0.13094261 0.09332018
000020 1c 1c b2 bd 3b 1c 5b be 35 e5 2c be 4e f8 84 bd
       -0.08696768 -0.21397488 -0.1688431 -0.06492673
000030 64 b5 60 3d 7c 8f 2a be db a8 56 3b ce c4 1e 3e
       0.054860488 -0.16656297 0.0032754454 0.15504763
000040 30 5e 8d be 2e 90 a3 3b a1 d1 c3 bd 59 0e 0c 3d
       -0.27610922 0.004991553 -0.09561468 0.03419337
000050 d2 c7 e3 bd 35 80 a1 3d 17 12 72 3e 08 eb 94 bd
       -0.11122097 0.07885782 0.23639713 -0.07271391
000060 6f 5d 98 bc 99 58 17 3e 06 ba 9d bd 0a e0 16 be
       -0.01859924 0.14779891 -0.07701497 -0.14733902
000070 e9 1a 20 bc 9b 54 8c 3e 4a 87 53 3e 13 68 8b 3c
       -0.009772041 0.274083 0.20657077 0.0170174

predictionFunction.startBlock.1.running_mean f4 [32]
000000 0d 43 62 3e fd 60 63 bd 16 b1 d1 bd e6 bf ce bd
       0.2209589 -0.055512417 -0.102388546 -0.100951955
000010 5e 73 21 3e 59 58 9c 3d cd a2 11 bc 0d 03 29 be
       0.15766665 0.076340385 -0.008888912 -0.1650507
000020 e7 cf 00 be 15 40 44 bd 33 df 27 3d 30 07 b5 3b
       -0.12579308 -0.047912676 0.040984344 0.0055245385
000030 82 69 e3 ba 4b 00 96 3e a0 c1 42 be 87 84 7c bd
       -0.0017350169 0.292971 -0.19019175 -0.061649825
000040 c2 36 d4 bd d6 c4 e7 bd 5b 76 76 be bc fa 91 3e
       -0.10362007 -0.1131684 -0.24068587 0.28511608
000050 3b 77 0d 3e 4c f5 2f 3e 1c 9a 0b 3d 29 4a 08 be
       0.13815014 0.17183417 0.034082517 -0.1330954
000060 51 7b 78 3c c8 da 1f 3e ce a3 02 bd bc cf 35 3e
       0.01516612 0.15610802 -0.031894498 0.17755026
000070 80 6d e7 3d 4e 83 d7 3d 75 c8 f2 bd 7f fa 24 3e
       0.11300182 0.10523091 -0.118546404 0.16111182

predictionFunction.startBlock.1.running_var f4 [32]
000000 cc 46 70 3f 16 d7 be 3f c0 c0 c9 3f 0e 30 57 3f
       0.9385803 1.4909389 1.5761948 0.840577
000010 16 a1 84 3f fb 9c 87 3f 65 24 82 3f 4c 37 85 3f
       1.036166 1.0594782 1.0167357 1.04075
000020 47 0a 63 3f 43 c1 9d 3f 31 66 5a 3f e7 40 cf 3f
       0.88687557 1.2324604 0.8531218 1.6191682
000030 2b 2f aa 3f 7f 80 b3 3f 70 62 b3 3f 9e a1 b3 3f
       1.3295645 1.4023589 1.4014416 1.4033697
000040 45 75 ac 3f 88 a3 7f 3f e5 83 b1 3f 3f 85 8b 3f
       1.3473288 0.99858904 1.3868376 1.0900038
000050 9f 32 92 3f 0f 0e 7e 3f ac 4c df 3f 71 20 65 3f
       1.1421698 0.992402 1.7445273 0.89502627
000060 31 d0 a5 3f eb 11 b0 3f 0d 44 a5 3f f0 ef 90 3f
       1.295416 1.3755468 1.2911392 1.1323223
000070 89 ab a1 3f d3 dc 49 3f 3e 1f 70 3f 46 93 53 3f
       1.2630473 0.78852576 0.9379767 0.82646596

predictionFunction.resBlocks.0.conv1.weight f4 [32, 32, 3, 3]
000000 b2 f6 9f 3d ce 9b 48 3d 9a a6 a6 3c 96 50 03 3d
       0.07810725 0.048976712 0.020343114 0.032059275
000010 f2 b2 0c 3e 3e 07 2f 3e 3b 33 c2 bc 32 90 ad bc
       0.13740137 0.17092606 -0.02370607 -0.021186922
000020 a1 61 b1 3e fa 1f 04 be ab fb 0d be e2 b8 ea 3d
       0.34644797 -0.12902823 -0.13865535 0.11461045
000030 d0 df 93 3a b3 75 72 be b7 43 0f 3e af b5 3a 3e
       0.0011281911 -0.23677711 0.13990675 0.1823337
000040 54 5c 1b be 3e a0 27 3e f9 36 76 bd d6 6a 97 bd
       -0.15171939 0.16369721 -0.06011102 -0.07393424
000050 21 61 8b bd 51 66 a9 3d ec 14 50 be 79 a4 92 be
       -0.06805635 0.082714684 -0.20320481 -0.28641108
000060 bc 50 bc 3e 8c b1 1e 3e e0 d7 00 be 9c 68 a1 3d
       0.36780345 0.15497416 -0.1258235 0.07881281
000070 20 88 96 3e d0 b7 40 be 22 31 53 3e 11 b9 df 3d
       0.2940073 -0.18820119 0.20624211 0.109239705
000080 c1 1e 9c 3e 81 a5 49 3e f1 0a 16 3e 40 0e be 3d
       0.30492213 0.19692041 0.14652611 0.09280062
000090 88 23 cc 3c b9 99 8e 3e 52 39 1a 3e 25 12 06 3e
       0.024919286 0.27851656 0.15060928 0.13092859
0000a0 ee aa 8e bd 05 75 a6 be 20 f9 07 3e 5c 64 21 3c
       -0.06966196 -0.32511154 0.13278627 0.009850588
0000b0 f4 34 36 bd 3d 5e 84 bc 48 68 36 3d 4a d0 27 3e
       -0.044484094 -0.016158218 0.044533044 0.1638805
0000c0 ae 49 8e 3a d1 d8 6b 3c 55 78 86 3d 85 d9 93 3b
       0.0010855698 0.014394955 0.0656592 0.0045120143
0000d0 1f 80 17 be af 61 60 bb 8a 22 40 be ca cb 5e bd
       -0.14794968 -0.0034237911 -0.18763176 -0.054393567
0000e0 96 3b 36 bd 47 7a cd be 28 47 1d 3e e6 cc dc 3d
       -0.04449042 -0.40132353 0.15359175 0.10781269
0000f0 c2 d3 07 be d2 22 1d bd c9 1d 94 3e 08 18 ef bd
       -0.13264373 -0.038363285 0.28928974 -0.116745055
000100 b1 af 28 bd 46 ba 93 3d 34 56 20 3e 6f 55 a0 bb
       -0.041183177 0.07213263 0.15657884 -0.004892997
000110 4e 6d c3 3d c3 e6 2c be b8 78 89 3d 69 f4 cc bd
       0.095423326 -0.16884904 0.067124784 -0.10007555
000120 4b 88 32 bd f3 d5 f4 bd 62 eb ee bd 3a e0 af 3c
       -0.04358701 -0.1195487 -0.116659895 0.021469224
000130 d8 55 84 3d 28 48 30 be f1 aa 6a bd da ce 0a 3e
       0.06461686 -0.17215025 -0.05729193 0.1355547
000140 76 37 60 3d ed 8f 05 3e 11 ec 1a bd dc 1a 1b 3e
       0.05474039 0.13043185 -0.037822787 0.15146965
000150 30 b1 3e 3d 13 13 12 bd 09 61 3f 3e 13 e5 2f 3d
       0.046555698 -0.03566272 0.1868936 0.04294307
000160 e9 09 82 3d a0 e7 7c be cc 8a c8 bd 9e 43 8c 3e
       0.063495465 -0.24697733 -0.097920984 0.27395338
000170 0d ab 9f bd 82 b8 50 3e 58 85 29 bd a4 89 34 be
       -0.07796297 0.20382884 -0.041386932 -0.1763063
000180 75 3e 47 3e 47 29 a8 3e fe a1 5d bd 29 ad c0 3d
       0.19457419 0.32843992 -0.054109566 0.09408028
000190 0e a5 ac bb ef a1 38 be 19 2b 03 be 41 89 59 be
       -0.0052686995 -0.18030523 -0.12809409 -0.21243764
0001a0 37 95 fb bd 2c 2f 82 be c4 ca cc 3d 82 0d 58 3d
       -0.1228432 -0.25426614 0.09999612 0.052747257
0001b0 c0 d4 81 bd ea 9b 83 3d 93 18 9b bc 82 6e 13 3e
       -0.06339407 0.064262226 -0.018932616 0.14397624
0001c0 23 5d 3c 3c ef ea f3 bd 03 c2 64 3d 33 e8 45 3d
       0.011496815 -0.119100444 0.055849086 0.048317146
0001d0 41 ec f5 bd ab 12 64 3d c8 9a 00 bd e3 33 fc bd
       -0.120079525 0.055681866 -0.03139761 -0.12314584
0001e0 33 ee 88 3e fc 17 b9 3d 98 a9 21 bd 2f ff fb 3d
       0.26744232 0.09037778 -0.039468378 0.12304532
0001f0 a6 e6 4f 3c f4 de 2b be b5 e8 bd 3d 2d 3f 82 bd
       0.012689268 -0.16784269 0.09272901 -0.06359706
000200 61 ba c1 3e df 12 95 ba 61 34 15 bd 7d ce 62 3c
       0.37837508 -0.0011373422 -0.036426906 0.013843176
000210 0b 35 3e ba ee 16 dd 3d fe 13 8d 3e 32 aa 21 bc
       -0.0007255829 0.10795389 0.27554315 -0.009867238
000220 e7 7e 41 be 4b 1c 4b be a1 25 15 3e 50 62 f9 bd
       -0.18896066 -0.19835012 0.14565136 -0.12176955
000230 87 9f c4 be 2f ee 40 bd fe dc ce bd 1d 5a cb bb
       -0.3840296 -0.04710215 -0.10100745 -0.0062058107
000240 0c d5 65 be 78 58 83 3e 65 ce f1 bd 4c ee de bd
       -0.22444552 0.25653434 -0.11806945 -0.10885295
000250 bf 27 10 3e 79 d2 07 be 9c 11 a2 3e 0a 7d 20 3e
       0.14077662 -0.13263883 0.3165406 0.15672699
000260 c4 e1 36 be be f4 78 3d c3 2a 17 be 33 b6 11 be
       -0.1785956 0.06078028 -0.14762406 -0.1422966
000270 5b 86 02 be 8d 5f 10 be 84 a5 6d be b2 ee 34 3d
       -0.12746565 -0.1409895 -0.2320767 0.04417295
000280 6c 22 c5 3c f8 57 19 be 9f 15 19 3e 1d a1 a9 be
       0.024064265 -0.14974964 0.14949654 -0.33130732
000290 84 95 98 bc d4 79 1f be da 93 60 3e cf 39 cf bc
       -0.018625982 -0.15573817 0.21931401 -0.02529612
0002a0 93 8d 2c bd 2f 52 90 bd 18 e0 df 3d 06 01 ae 3c
       -0.042127203 -0.07046925 0.10931414 0.021240722
0002b0 54 13 8f 3d 5f 31 d6 3e 6e 1f 5d 3d 0a 16 13 be
       0.069861084 0.41834542 0.05398505 -0.14363876
0002c0 92 22 68 be b3 89 e2 3c 45 75 28 3e c7 66 28 bd
       -0.22669438 0.02765355 0.16450985 -0.04111364
0002d0 74 67 68 be 6b 20 2d bd a2 8f 2c 3d 8a 9f 1b 3d
       -0.22695714 -0.042267244 0.042129166 0.037993945
0002e0 13 4d e1 bb ae 55 d8 3d 10 25 64 3c 40 4c af be
       -0.006875643 0.10563217 0.013924852 -0.34237862
0002f0 34 81 92 bd eb aa af 3d 41 af 05 bc 14 14 6f 3e
       -0.0715355 0.08577522 -0.00815946 0.23347503
000300 d3 28 88 3e 5f 94 22 be 3c 8a e2 bd c6 6a 16 3e
       0.26593646 -0.15876912 -0.11061522 0.14689168
000310 d5 7d 8e bd cf 85 df 3e 47 83 24 be 6c 9b 80 3d
       -0.06957594 0.43656775 -0.16065703 0.06279644
000320 09 48 1e be e5 b4 b2 bc d0 64 ee 3d b0 09 a2 3d
       -0.15457167 -0.021814773 0.11640322 0.07912004
000330 ea 0b 43 3e 93 ac 88 be 7a 71 7e 3d ca 4b 24 3e
       0.19047514 -0.26694164 0.06211994 0.16044536
000340 08 b0 6b be 8e 11 e7 bd c0 bb d1 bd 8e ec a1 bc
       -0.2301637 -0.11282645 -0.102408886 -0.019766118
000350 1e 29 1a be e9 27 48 bd f7 06 7f bd e9 2b 1f bd
       -0.15054747 -0.048866186 -0.0622625 -0.038860235
000360 08 ec 6c be 44 88 02 be 59 92 87 be ec 02 f3 3b
       -0.23136914 -0.12747294 -0.26478842 0.00741612
000370 47 a2 85 be 46 7d 3d be 40 30 49 be 97 c2 a4 be
       -0.2610037 -0.1850482 -0.19647312 -0.3217971
000380 7b bd 11 3e 44 8b df bd 72 11 15 be f7 f4 f7 bd
       0.14232437 -0.10915235 -0.14557436 -0.1210727
000390 b9 40 8a bd a1 af c2 bd 42 12 2f be 6a 88 af 3b
       -0.06750626 -0.09506155 -0.17096809 0.005356838
0003a0 54 0b 59 bd 7a 4e 7a bd 8f b3 9d bd de 67 6d 3d
       -0.05298932 -0.061109997 -0.07700264 0.057960384
0003b0 fd 58 8a 3e 41 8e 51 bb fc 6a 59 3c 79 44 17 bc
       0.27021018 -0.003197566 0.013270136 -0.009232634
0003c0 b5 b2 02 3d 0c 7e f4 bd 92 77 4c 3e fc c9 48 be
       0.03190871 -0.11938104 0.19967487 -0.19608301
0003d0 27 a0 07 be 0b 8e 8c bd ad 67 a6 bd 7f 94 b4 3d
       -0.13244687 -0.0686303 -0.08125243 0.08817386
0003e0 54 e7 1b 3d 88 32 b1 3d 34 41 a8 3d 93 29 44 3e
       0.03806241 0.08652216 0.082155615 0.19156484
0003f0 fd 88 7f 3e a4 67 ab be 7b 49 f5 3c 82 91 46 3d
       0.249546 -0.3347751 0.029942265 0.04847861

predictionFunction.resBlocks.0.bn1.weight f4 [32]
000000 79 69 8c 3f 4e c7 63 3f 28 26 80 3f 50 2e 8a 3f
       1.0969688 0.8897599 1.0011644 1.0795383
000010 1a fe 8a 3f 87 f1 89 3f 15 43 68 3f 6d 2b 83 3f
       1.0858796 1.0776833 0.9072736 1.0247627
000020 e0 44 63 3f 56 b6 69 3f c4 91 56 3f 94 13 9a 3f
       0.8877697 0.9129385 0.8381617 1.2037225
000030 d3 46 8b 3f 36 9b 79 3f e9 e0 61 3f 87 6d 7f 3f
       1.0880989 0.9750246 0.8823381 0.997765
000040 c6 d7 83 3f 66 19 6b 3f 43 1a 7f 3f 71 cd 92 3f
       1.0300224 0.9183563 0.9964945 1.1468946
000050 bc 6c 62 3f e5 6a 66 3f d2 f0 8f 3f 5a e5 68 3f
       0.88447165 0.9000686 1.1245368 0.9097496
000060 05 12 83 3f 79 42 62 3f c0 ac 51 3f e8 57 5f 3f
       1.0239874 0.8838268 0.8190422 0.8724351
000070 b1 6e 8a 3f 26 d2 7f 3f e2 ef 8b 3f 86 45 86 3f
       1.081503 0.99930036 1.0932581 1.0489967

predictionFunction.resBlocks.0.bn1.bias f4 [32]
000000 97 ba 3e be 9b 71 55 be 14 54 88 be 48 c8 17 be
       -0.18625866 -0.20844118 -0.26626647 -0.14822495
000010 e7 62 00 be 94 08 d9 be bc 29 4b be cb 62 b2 be
       -0.12537728 -0.42389357 -0.19840139 -0.34840998
000020 c8 62 e8 bd ad 46 fe bd 07 ba 68 be 30 09 08 be
       -0.11346966 -0.12415824 -0.22727214 -0.13284755
000030 14 b6 2a bc f3 f0 80 be b2 7e e0 bd ae 67 d1 bd
       -0.010419387 -0.2518383 -0.10961665 -0.102248535
000040 be e2 70 be 1a e8 e1 be dd c6 07 bf 70 06 63 be
       -0.23523995 -0.44122392 -0.53037816 -0.22170424
000050 69 2b 50 be c7 4f 84 be 1b af 06 be e9 d2 8a be
       -0.2032906 -0.25842115 -0.13152735 -0.27114037
000060 18 5a 5f be a7 4c a2 be 34 05 58 be 3a 7a c5 bd
       -0.21811712 -0.31699106 -0.21095735 -0.096424535
000070 6e 4c 64 be 24 fd 20 bd 05 f4 b8 bd dd ef 80 be
       -0.2229478 -0.039303914 -0.09030918 -0.25183

predictionFunction.resBlocks.0.bn1.running_mean f4 [32]
000000 69 45 1a bf ee d8 b7 bf df c6 f6 bf 09 66 e5 bf
       -0.6026216 -1.4363077 -1.9279441 -1.7921764
000010 91 48 0c c0 f3 7f ea bf b5 59 4c c0 5c 37 a3 bf
       -2.191929 -1.8320297 -3.1929753 -1.2751269
000020 d4 83 42 c0 c9 76 32 c0 1c bd 63 3c 06 c1 24 c0
       -3.0392962 -2.7885 0.013900068 -2.5742812
000030 86 f7 81 c0 0a c0 32 c0 97 95 0d c0 5a 3c 46 3e
       -4.0614653 -2.7929711 -2.2122552 0.1935896
000040 09 19 9a bf c0 de 32 3f ef 77 be bf 9c f5 d1 bf
       -1.203889 0.6987114 -1.4880351 -1.6403079
000050 47 ea 06 c0 5c b7 f3 bf 68 4c bf bf 63 e4 3e c0
       -2.1080492 -1.9040332 -1.4945192 -2.9826896
000060 a8 87 bc bf 40 66 a1 c0 23 ff 11 c0 d6 17 2b bf
       -1.4728899 -5.0437317 -2.2811973 -0.66833246
000070 dc e6 22 c0 fc 8c 28 c0 99 2d 32 c0 b5 2d 44 bf
       -2.5453405 -2.633605 -2.784033 -0.76632243

predictionFunction.resBlocks.0.bn1.running_var f4 [32]
000000 05 67 90 40 d9 6d f1 40 51 8b b3 40 51 5e 16 41
       4.5125756 7.544659 5.6107564 9.398026
000010 e7 2f d5 40 f3 b1 c8 40 fe e2 14 41 b0 7c a2 40
       6.6620975 6.2717223 9.305418 5.0777206
000020 b5 77 bc 40 7a 48 2a 41 37 e8 b7 40 db 9e 05 41
       5.8896127 10.642694 5.7470965 8.351283
000030 16 bb 0a 41 40 9d 07 41 b1 84 b5 40 06 c9 fe 40
       8.670675 8.475891 5.6724477 7.962039
000040 76 53 a2 40 22 20 b0 40 88 7f af 40 39 02 0a 41
       5.072688 5.5039225 5.484318 8.625543
000050 14 d0 21 41 1d bc 0a 41 7e 77 12 41 6b d6 03 41
       10.1133 8.670926 9.154173 8.239848
000060 2b 45 a8 40 d7 d3 1f 41 ad a5 f6 40 e7 45 15 41
       5.2584434 9.989219 7.707724 9.329566
000070 ea 6c b7 40 b8 7b 08 41 c5 8b c2 40 f1 b2 bb 40
       5.732045 8.530205 6.0795617 5.8655934

predictionFunction.resBlocks.0.conv2.weight f4 [32, 32, 3, 3]
000000 ec 6e 93 bd e8 42 14 be ff b1 2d be fd 3c ae 3e
       -0.07198891 -0.14478648 -0.16962431 0.34030905
000010 a2 1c 12 3e fd 00 4a be d4 9a 18 be 14 1c ab 3d
       0.14268735 -0.1972694 -0.14902812 0.08354965
000020 ce 7f 59 3d 50 0a e1 bd c7 8f 27 3e 8d 38 4e 3d
       0.0531004 -0.10988295 0.1636344 0.0503469
000030 6a f2 b1 bd 1d 2d e5 3d 62 b9 3a bd 03 74 23 be
       -0.08688815 0.11190245 -0.04558695 -0.15962224
000040 dd 20 80 be 44 82 77 be a8 b4 1c be 3b 41 70 bd
       -0.25025073 -0.24170786 -0.1530329 -0.05865596
000050 34 3b 3a 3d db 03 29 be 20 4d ea bd 1a fe aa bb
       0.045466617 -0.16505377 -0.11440492 -0.0052182795
000060 a6 e8 8e 3e 5b 8d 9b 3d e6 aa 6b 3e c9 eb e7 3d
       0.27911872 0.07595321 0.23014411 0.11324269
000070 8a 52 5c 3d 17 98 2a bd a0 68 e7 bc 43 6b 28 3e
       0.053789653 -0.04164895 -0.028248131 0.16447167
000080 7c a6 81 3e fd eb 85 3e 6a 2a 34 3e 69 4d d0 bc
       0.2532233 0.26156607 0.17594305 -0.025427537
000090 c6 b7 47 3e 62 68 ed 3c d0 aa c1 bd 1d 77 56 3b
       0.19503698 0.028980438 -0.09456408 0.0032724806
0000a0 d1 55 09 3e 53 73 c5 3c 7d e7 8a bd 06 0a de 3d
       0.13411643 0.024102842 -0.06782434 0.108417556
0000b0 86 c1 13 be 54 41 f7 3d 69 b9 dd bd 49 e5 41 3d
       -0.14429292 0.12073007 -0.1082638 0.047337804
0000c0 72 be c5 3d b1 04 3d 3e bb 83 90 bc 13 1c 78 3e
       0.09655465 0.18458821 -0.017640939 0.2422946
0000d0 eb 68 c5 bd a0 b1 2e bd 52 67 78 be 3f 59 1e be
       -0.09639152 -0.042649865 -0.24258164 -0.15463732
0000e0 d5 8a 73 3d 29 47 a2 3e e7 72 96 bc 86 9a 34 bd
       0.059458572 0.31694916 -0.018365337 -0.044092678
0000f0 15 b9 b1 3c 94 05 84 bc f1 9b 1f 3e ac 11 f5 3d
       0.0216947 -0.016115941 0.1558683 0.11966261
000100 1f e8 1e 3e 04 74 e8 bd 03 61 ed 3d 6c fc 25 3e
       0.15518235 -0.11350253 0.11590769 0.16209573
000110 b4 77 fe 3d 7e 89 38 bd 59 a2 0f be 41 17 e9 bd
       0.12425175 -0.045052998 -0.14026774 -0.113813885
000120 0c f3 a1 3d 23 f8 a4 3d b1 2f 89 bd d3 2e cc 3d
       0.07907686 0.08055141 -0.066985495 0.099698685
000130 11 b7 8c 3d 54 d5 6a 3e 65 76 70 3e cb 94 2e 3e
       0.06870855 0.2293294 0.23482664 0.17048948
000140 4c c3 7d bd 53 21 82 3e 78 68 0c 3e 38 2c 34 3e
       -0.061953828 0.2541605 0.13711727 0.17594993
000150 86 42 41 bc f8 71 bf 3d 4d f7 b8 bd 9e e2 90 bd
       -0.011795646 0.0934791 -0.09031544 -0.07074474
000160 ef 03 f7 bd f2 4c 58 be 79 bf 6b be 8c db 86 3d
       -0.12061297 -0.21123102 -0.2302226 0.06584844
000170 f3 c1 0f 3e e3 af 75 bd 72 b2 f0 bd 6a fa f2 3c
       0.1403883 -0.05998219 -0.11752786 0.029660422
000180 10 08 bf bd bb 11 e4 3d bc 87 e9 bd f5 34 40 be
       -0.0932771 0.11136194 -0.114028424 -0.18770202
000190 5d fb 90 3e 5f e1 5c bd 01 d1 73 be 36 bd 2a be
       0.28316775 -0.053925868 -0.23810197 -0.1667374
0001a0 d2 2c 97 be fc 20 99 bd 34 35 0b 3d 17 84 08 bd
       -0.29526383 -0.074769944 0.033986285 -0.033329096
0001b0 d7 7b 22 be c5 88 26 3e 4d e5 8b 3c 41 10 28 3e
       -0.15867554 0.16263111 0.017077113 0.1641245
0001c0 16 7f 26 be d5 ee 92 be f2 5a 97 be 0d ad ba bc
       -0.16259417 -0.2869784 -0.29561573 -0.022787595
0001d0 12 8e ba 3d 8d d2 6f 3e a1 97 7a be de 6e b4 3d
       0.09109129 0.23420162 -0.24471904 0.08810209
0001e0 82 62 6f bd b4 1e 43 3d e2 88 93 3e 6b 96 7b be
       -0.058443554 0.047636703 0.2881537 -0.24569099
0001f0 e9 92 03 bd 1d fd 6c 3d e0 6f 18 be 30 c0 2f be
       -0.032122526 0.057858575 -0.14886427 -0.17163157
000200 c5 3d 4f 3d 7f ce 5f be 15 a2 cd 3d 17 14 f3 ba
       0.050596017 -0.21856116 0.1004068 -0.0018545416
000210 e2 7d d3 bc 94 fd 24 3c ea 26 86 bd 2e ea 1f be
       -0.025816862 0.010070223 -0.06550391 -0.15616676
000220 6f 9c de bc b9 80 95 3d 9f 34 b4 3e 64 68 fc 3a
       -0.027174203 0.072999425 0.35196397 0.0019257185
000230 a7 fb 1f 3e e1 41 43 3e a3 d8 cf 3d cb cb 2c 3e
       0.15623342 0.190681 0.10148742 0.16874616
000240 c7 c9 10 be 84 e2 cd bd 36 e3 6e 3c b4 1f 70 be
       -0.14139472 -0.1005297 0.0145805385 -0.23449594
000250 aa 3c 10 be 59 8d 03 3d b6 9c 40 be 64 d0 7f be
       -0.14085642 0.03211722 -0.1880978 -0.24981838
000260 48 cc cb bd 9d f5 aa 3d c9 8c 4c be 71 65 82 be
       -0.09951073 0.08347628 -0.1997558 -0.2546802
000270 ac 17 8f bc f2 91 cc bd 2d 9f 34 3d 16 cd d6 bd
       -0.017467342 -0.09988774 0.044097114 -0.10488336
000280 c4 0c a8 3c f9 cd 7f 3d 2f ce b4 be 94 92 ec bc
       0.0205139 0.06245229 -0.35313556 -0.028878488
000290 58 95 b8 3d ad 27 58 3d 52 cf ac 3e af 16 01 be
       0.0901286 0.052772213 0.33751923 -0.1260631
0002a0 b6 8a d7 bd e9 5f 90 3d 2b f4 8c 3c 37 9c cd 3d
       -0.10524504 0.070495434 0.017206272 0.10039561
0002b0 56 85 31 3e 55 3e bb 3e 5a 35 60 be fd 09 08 be
       0.1733602 0.36570993 -0.21895352 -0.1328506
0002c0 69 12 09 be 87 36 fb bd ca 65 14 ba ff bf 92 bd
       -0.13385929 -0.1226626 -0.00056609197 -0.071655266
0002d0 3a 2e db 3b d2 6a db 3d db a2 45 3e b8 7b 30 bd
       0.0066888602 0.10713734 0.19300406 -0.043086737
0002e0 42 14 a2 3c 87 cb ea bd 0d 6d 07 be 2c ba 3a be
       0.01978505 -0.11464601 -0.13225193 -0.18235081
0002f0 68 e7 05 be 68 5e 8f bd 16 a2 e7 3d fc 01 78 3e
       -0.13076556 -0.070004284 0.11310212 0.24219507
000300 86 ca 8b bd 1b 5b 77 3e db 19 04 3e d8 be ba be
       -0.06825738 0.24155848 0.12900488 -0.36473727
000310 d6 39 21 3e 16 35 6b 3d e2 68 ca be e9 79 b7 3d
       0.15744719 0.057423674 -0.39533144 0.089587994
000320 01 19 cc 3d 46 71 38 be 97 50 9c be 6e 50 3a 3e
       0.099657066 -0.1801196 -0.30530235 0.18194744
000330 85 31 55 3d 6c 98 0b 3e 23 27 63 bc e9 cd 00 3e
       0.05204918 0.13632363 -0.013864311 0.12578548
000340 c4 0a 9b bd ae 07 52 bd 4f 64 02 be fd 71 3f 3e
       -0.07570413 -0.051276855 -0.12733577 0.18695827
000350 e1 73 6a be 08 40 1d 3e ca e6 b8 3d 20 a6 67 bd
       -0.22895767 0.15356457 0.090283945 -0.056554914
000360 0d 8a 8f 3d e5 54 d5 bd 38 98 aa 3b d8 01 ff 3b
       0.07008753 -0.10416583 0.005206134 0.007782202
000370 0d a8 41 be ed 85 8c 3d dc c3 07 3f 15 2c 28 3e
       -0.18911763 0.06861482 0.5303323 0.16423066
000380 65 19 f9 bc e4 03 3a 3d 4d c4 13 bd 5d 11 e7 bc
       -0.030407617 0.045413867 -0.03607588 -0.028206522
000390 6e 36 4a 3e 8c 60 5d 3e 40 27 1c be ca f0 93 3b
       0.19747326 0.21618861 -0.15249348 0.0045147883
0003a0 59 a2 7f 3e 3a 49 2e 3e a3 e5 77 bb 15 e5 f3 bb
       0.24964274 0.17020121 -0.0037826083 -0.00744308
0003b0 e0 00 a1 3d cb a4 80 bc a9 e6 53 3d 94 b0 8b 3c
       0.07861495 -0.01570358 0.051733647 0.017051972
0003c0 0f 80 e2 be c7 20 fa 3c e2 7a b4 be d4 d2 03 3e
       -0.44238326 0.030533208 -0.35250002 0.12873393
0003d0 b1 3f 79 3c 9d 8a 7a 3d 78 8a f3 3d ee 69 f7 bc
       0.015212939 0.06116735 0.11891645 -0.030201878
0003e0 3c 29 d7 3b 5c 4d 46 3e 5c 54 8f 3d e9 e3 f3 3d
       0.006566195 0.19365448 0.06998512 0.11908705
0003f0 f5 85 d2 bc d9 86 a5 be 4e 96 3b bd b2 23 c7 3d
       -0.025698641 -0.32329443 -0.04579764 0.09723605

predictionFunction.resBlocks.0.bn2.weight f4 [32]
000000 b1 ab 85 3f a2 7b 8f 3f 75 46 90 3f f1 94 99 3f
       1.0443021 1.1209605 1.1271502 1.1998578
000010 43 94 98 3f e5 02 8a 3f c0 7a 96 3f 78 27 5f 3f
       1.1920246 1.0782133 1.175621 0.871696
000020 b8 f1 97 3f 9b 68 66 3f b4 4e 9f 3f 1e 1d 8b 3f
       1.1870642 0.90003365 1.2445893 1.0868261
000030 05 7d 9b 3f 76 09 97 3f 98 a4 ac 3f 64 d8 83 3f
       1.2147528 1.1799762 1.348773 1.0300412
000040 c2 6d 93 3f 17 3c 9e 3f 58 91 97 3f 1e a7 7d 3f
       1.151787 1.2362088 1.184123 0.99083126
000050 91 91 82 3f f7 8f 90 3f 41 36 98 3f f8 3c a2 3f
       1.0200673 1.1293935 1.1891557 1.2674856
000060 ad 27 70 3f 0a 5c 6b 3f 4b 49 93 3f 6a a0 a0 3f
       0.9381054 0.91937315 1.1506742 1.2548954
000070 a1 a3 a4 3f 65 ba 99 3f 76 35 84 3f e1 f7 8d 3f
       1.2862436 1.2010008 1.0328815 1.1091272

predictionFunction.resBlocks.0.bn2.bias f4 [32]
000000 a8 92 52 be 76 c5 b4 bd 39 3e 69 be a5 ad 01 be
       -0.20563757 -0.08826725 -0.22777642 -0.12663896
000010 01 23 6b be 10 4a 1b be ce 52 40 be 4c f8 80 be
       -0.22962572 -0.15164971 -0.18781587 -0.25189435
000020 65 77 9b bd 7f a8 96 be d8 ea e5 bc 6a 79 54 be
       -0.07591132 -0.29425427 -0.028066084 -0.20749441
000030 e7 f7 38 be 9d f4 46 be 3b 29 87 be f6 46 8d bd
       -0.18063317 -0.1942925 -0.26398644 -0.068983
000040 5f d0 5c be fd df 96 be e2 5d b3 be 6e af b7 be
       -0.21563862 -0.29467764 -0.35032564 -0.3587603
000050 9a d4 93 bc fa f3 11 be 0d 74 1f be 24 e7 99 be
       -0.018045712 -0.14253226 -0.15571614 -0.3005916
000060 04 27 54 bd d1 3b 40 3c 38 bd a6 3d fe 32 c6 bd
       -0.05179502 0.011733011 0.08141559 -0.09677695
000070 91 1b 33 bd a4 72 02 be 5c b6 bc bd 64 ab 0d be
       -0.04372746 -0.12739044 -0.0921447 -0.13834912

predictionFunction.resBlocks.0.bn2.running_mean f4 [32]
000000 04 1f 97 3d 82 ec 11 c0 2e 53 d5 bf 26 4a 51 bf
       0.07378963 -2.2800603 -1.666601 -0.81753767
000010 7e 9c 03 bf 0e 77 00 bf 6e 91 dd be fa 8f 73 be
       -0.51410663 -0.50181663 -0.43275017 -0.23785391
000020 4e c7 9a bf 75 c2 7f 3f 16 d6 49 3f 0d 5e 33 3f
       -1.2092073 0.9990609 0.78842294 0.70065385
000030 a4 a8 ea 3f 5e fe 9c bc 05 e4 1f bf a5 f7 b8 bf
       1.8332715 -0.01916426 -0.62457305 -1.4450575
000040 9b b6 89 bf 00 6d 2e bf c6 aa 01 be d9 3f 65 3f
       -1.0758852 -0.6813507 -0.12662801 0.8955055
000050 1b 67 12 bf 22 e6 a9 be 5c ca 43 be e4 00 25 bf
       -0.57188576 -0.3318339 -0.19120163 -0.64454484
000060 79 b1 bc bf 62 fa 9e bf 38 39 d8 be 18 3a d0 bf
       -1.474166 -1.2420161 -0.42231154 -1.6267729
000070 65 db bd bf 6c f3 c7 3e 14 29 f8 bf 41 1b 43 be
       -1.4832579 0.39052904 -1.9387536 -0.19053365

predictionFunction.resBlocks.0.bn2.running_var f4 [32]
000000 84 05 24 40 ae 2e 56 40 fc 89 1c 40 7f b0 27 40
       2.5628366 3.346599 2.445922 2.6201475
000010 06 6c 22 40 83 91 81 40 f9 48 2d 40 82 4c 80 40
       2.5378432 4.0490127 2.707579 4.0093393
000020 97 2d 4f 40 3a cf 74 40 2f 17 8f 40 a1 09 89 40
       3.2371576 3.825148 4.47158 4.2824254
000030 e0 11 2f 40 a8 11 4e 40 93 f6 0e 40 50 85 7b 40
       2.735466 3.2198277 2.2337997 3.9300117
000040 ee f3 29 40 1e 5b 1f 40 e2 37 04 40 e2 64 6c 40
       2.6555133 2.4899364 2.0659108 3.6936574
000050 58 19 0d 40 7a 0a 2f 40 47 90 54 40 30 39 3d 40
       2.2046719 2.7350144 3.321306 2.9566154
000060 b7 67 d2 40 71 74 d6 40 81 5b 42 40 24 ff 24 40
       6.5751605 6.701714 3.036835 2.5780725
000070 63 53 15 40 d5 f0 00 40 db de 72 40 62 26 44 40
       2.3332145 2.0146992 3.794852 3.0648427

predictionFunction.resBlocks.1.conv1.weight f4 [32, 32, 3, 3]
000000 eb e7 d9 3b 18 e7 a5 bc 09 59 97 be 63 fb 73 be
       0.006649961 -0.020251796 -0.29560116 -0.23826365
000010 f4 03 1e be 0f f0 76 be 9d 0e 48 be 4c 41 7f be
       -0.15431195 -0.24115013 -0.19536825 -0.24927253
000020 0e 05 53 be 23 24 83 3d 73 64 83 3d c5 55 96 3d
       -0.20607397 0.06403377 0.064156435 0.07340578
000030 27 7e ce 3e cb 4c d5 bb 90 2c 6a be 03 a4 ce 3e
       0.40330622 -0.0065093986 -0.22868562 0.40359506
000040 7f 7c b2 bd 6a ca c2 bd 2c 4e e3 be 5f 9b fc bd
       -0.08715152 -0.09511264 -0.44395578 -0.12334322
000050 7d 9a 48 3d f2 cb 24 3e 61 57 3d 3e 59 c7 32 be
       0.048975457 0.16093424 0.18490364 -0.17458858
000060 bf e7 a9 3e c9 e5 9c bd 7c a5 3b bb aa c1 87 be
       0.3318462 -0.076610155 -0.0028632572 -0.2651494
000070 85 3e c4 bd 8c 42 25 3d ea eb 3d 3a 99 a8 75 bd
       -0.09582237 0.040346667 0.0007244932 -0.05997524
000080 a8 b4 48 be ac d8 99 3e e5 d6 10 be e7 16 80 be
       -0.19600165 0.3004812 -0.14144476 -0.25017473
000090 dd f1 d9 3d 57 a3 c1 be e7 e7 e8 bc 07 45 74 be
       0.10641835 -0.3781993 -0.028430892 -0.23854457
0000a0 bf 1c 9c be eb 0c 42 bd 6b b4 a2 3d 90 bb b4 bd
       -0.30490682 -0.0473756 0.07944568 -0.08824837
0000b0 59 3a 1e 3d 3b 69 b7 3c bd 30 19 3e cb a2 37 3e
       0.038629863 0.022389045 0.14959998 0.17933194
0000c0 4e 48 61 be 30 0b f3 bd 77 1d ba 3d 1c 0b f5 bd
       -0.22000238 -0.11867368 0.09087651 -0.119650096
0000d0 1e 7e 33 bd 4c 51 aa 3d de 7b 3d 3e 68 40 61 3d
       -0.043821447 0.083162874 0.18504283 0.054993063
0000e0 58 c6 02 be 58 aa 95 3d ff 2a df bd 0e e2 ae bd
       -0.12770975 0.07307881 -0.10896873 -0.0853921
0000f0 ff e8 04 be ac 88 08 be 6b 52 c1 bd 98 dc 66 bd
       -0.12979506 -0.13333386 -0.09439548 -0.05636272
000100 e3 27 8b be 08 b9 ba bd e9 b4 ad 3c b4 b2 91 bd
       -0.2717887 -0.09117323 0.021204429 -0.07114163
000110 7b 86 18 3e 2d f6 7f 3d 1c d3 59 3e 60 c9 a6 3d
       0.1489505 0.06249063 0.21271938 0.08143878
000120 51 04 b7 bc 1b 1f f7 3c 55 0c e4 ba 6c d4 a8 bd
       -0.022340925 0.0301662 -0.0017398695 -0.08243641
000130 99 82 4f be 58 d5 57 3d 2b 4f 2b bd 49 81 7c bd
       -0.20264663 0.052693695 -0.041823547 -0.061646733
000140 b3 3d 68 3e 74 94 62 bd 9c 1a 32 be 05 a5 4f bd
       0.22679786 -0.055317357 -0.17392963 -0.050694484
000150 60 ec 4b bd 42 7c 29 bd 76 f5 09 3d 7e ba 86 3e
       -0.04978597 -0.041378267 0.033681355 0.26314157
000160 23 d7 54 3e 48 36 69 3d 0b 90 45 3e 25 0f 8b bd
       0.20785193 0.056936532 0.1929323 -0.06789998
000170 05 a5 52 be 53 be d8 bd 25 f5 98 bd a8 9f bc bd
       -0.20570762 -0.105831765 -0.074686326 -0.092101395
000180 da 54 c5 3d 69 88 02 be 56 5e 9b bd bd d8 a7 3d
       0.09635325 -0.12747349 -0.075863525 0.081956364
000190 a9 ee 99 3b 5a 79 90 3d 7a 47 9f 3d a2 c5 e0 3d
       0.00469764 0.07054396 0.07777305 0.109751955
0001a0 cc 53 f1 3d 19 7c 26 3e b4 18 bc 3d 18 5c a5 3d
       0.11783561 0.16258277 0.09184399 0.08074206
0001b0 4b 78 3e 3c 35 b9 26 3e 82 f3 5f bd bf 8a 99 3d
       0.01162536 0.16281588 -0.054675587 0.07497167
0001c0 19 10 48 bc 5a 8d 80 3e 72 d2 8a bd 6b c9 99 be
       -0.012210869 0.25107843 -0.067784205 -0.30036482
0001d0 a7 5b b6 3c 37 03 21 3e fb 38 b7 3d 0c 93 1b be
       0.0222605 0.15723883 0.08946415 -0.15192813
0001e0 12 6a f2 bc 97 48 d7 bc 61 eb 42 be af 85 aa bd
       -0.029591594 -0.02627973 -0.19035102 -0.08326279
0001f0 fc 56 e8 bd 15 df 03 3e c0 aa 07 3d d9 d0 ac 3e
       -0.11344716 0.12878068 0.033121824 0.33753088
000200 b2 b5 4d 3e 53 0a a0 3c 3d f7 38 3d 9a 25 b3 3e
       0.20088843 0.019536173 0.04515766 0.34989625
000210 08 a3 13 3d 1a 33 04 3e de b0 35 3e 02 b2 97 bd
       0.03604415 0.12910119 0.1774325 -0.07406999
000220 27 62 83 be 83 0b 10 be a6 e5 c4 bd 27 3e 2c be
       -0.25660822 -0.14066891 -0.096141145 -0.16820584
000230 49 68 0a 3e 99 26 a3 bd 7f 32 54 3e fb ba ef 3d
       0.13516344 -0.07966346 0.20722388 0.117055856
000240 4e ec df bd 84 65 6e bd 60 16 ac 3d 6f 9e 8a bd
       -0.109337434 -0.05820228 0.08402705 -0.067685
000250 43 e5 00 3d 76 eb 82 bc 4d 95 01 3e 0b d6 a8 bd
       0.03146864 -0.015981417 0.1265461 -0.082439505
000260 80 f8 7b 3c 5b 63 3e 3d 72 d5 73 bd 1e 4d 7a bd
       0.015379071 0.04648147 -0.05952973 -0.0611087
000270 eb 66 5f 3e 77 f8 ce 3d d0 f9 8a 3e 1b 30 85 3d
       0.21816604 0.10105985 0.27143717 0.06503316
000280 2f b6 86 bc ae b5 3a 3d a9 de df 3d f8 f0 41 be
       -0.016444294 0.04558342 0.10931141 -0.18939579
000290 60 ec 0a be 66 c0 49 bd 8c 03 68 be 93 b8 9d be
       -0.13566732 -0.04925575 -0.22657603 -0.3080488
0002a0 2f 81 e0 3c 43 65 11 3c 55 76 90 3d 8c 29 4a 3e
       0.02740535 0.00887424 0.0705382 0.19742411
0002b0 15 b4 0f 3e 99 56 02 be 27 93 03 be 48 33 44 3e
       0.1403354 -0.12728347 -0.12849103 0.19160187
0002c0 9b 13 98 3e f2 84 1b be 9c b3 93 bd 3e 8b 14 3e
       0.29702458 -0.15187433 -0.07211992 0.14506242
0002d0 f6 db 1c 3d 92 89 94 bd 70 27 1b 3d 34 11 d4 be
       0.03829571 -0.07252802 0.037879407 -0.41419375
0002e0 ff 57 e7 3d 75 e1 cc 3d d4 4d 01 be 96 76 8f 3e
       0.11296081 0.1000394 -0.12627345 0.2802016
0002f0 a1 87 0c bd d8 a6 1e be 9b 49 39 3d a2 7b 43 3e
       -0.034309033 -0.15493333 0.04523621 0.19090131
000300 36 6c a9 3d c0 30 01 3e 74 25 61 bc 06 1b f0 3d
       0.08272593 0.12616253 -0.01374184 0.11723904
000310 86 21 ab 3d c2 7a 52 be ad 96 75 bc 74 06 18 bd
       0.083560035 -0.20554641 -0.014989537 -0.03711553
000320 14 48 3f bd 4d 46 6f 3c 18 9b 4d 3e fc 03 1c bd
       -0.0466996 0.014604163 0.20078695 -0.038089737
000330 95 6e 42 bc 99 0e 9a 3d 01 b3 9a be 83 09 65 3e
       -0.011867185 0.075223155 -0.30214694 0.2236691
000340 89 7f 8f 3d d4 19 2e 3e 65 95 8e bd 4f 78 6d 3d
       0.07006747 0.1700204 -0.069620885 0.057976063
000350 54 bc 69 3d 88 d7 b6 3d 4e 41 17 3e 62 97 b6 bd
       0.05706437 0.08927828 0.14771006 -0.08915593
000360 4f 49 9b bc 87 c9 4e be 66 17 71 bd 05 09 b8 bd
       -0.018955855 -0.20194064 -0.058860205 -0.08986095
000370 06 c7 70 3d 6c 3e 07 bc ed 0e 64 3e e2 b2 ca 3d
       0.058783554 -0.008254629 0.22271319 0.098974004
000380 a0 ae 06 be 97 05 95 3d 7c 06 94 be 1e 0c b8 bc
       -0.13152552 0.07276457 -0.28911197 -0.022466715
000390 06 d9 b2 3d 4e 56 ff bc 17 ac 95 3d 77 fe 31 3e
       0.087328 -0.031169083 0.07308214 0.17382227
0003a0 0a ad 85 3e e5 62 27 3d c9 f6 d8 bd 83 76 b1 bd
       0.2610858 0.040865798 -0.105939455 -0.086651824
0003b0 5f 67 e4 be c7 d8 f1 3c d7 6b 92 bd 9b 50 9d bb
       -0.44610116 0.029522313 -0.07149475 -0.0048008687
0003c0 f4 37 f0 be 98 c9 e4 3d fa 63 f1 3d a8 d6 bc bb
       -0.4691769 0.111712635 0.11786647 -0.0057628937
0003d0 1b 53 a6 3d a9 0d 5f be 34 85 ce bc b4 81 bf bd
       0.0812132 -0.21782555 -0.02521 -0.09350911
0003e0 03 af 16 3e 62 1f ba bd 4d 2c 53 3e bb 7e 65 bd
       0.14715199 -0.09088017 0.20622368 -0.056029063
0003f0 8b c2 02 3e e2 21 85 3d 92 2c 8f 3d 05 fa e8 3d
       0.12769525 0.06500603 0.06990923 0.113758124

predictionFunction.resBlocks.1.bn1.weight f4 [32]
000000 4c 07 60 3f 85 fe 8f 3f d4 63 82 3f 0c f5 38 3f
       0.87511134 1.1249548 1.0186715 0.7224891
000010 f0 d2 91 3f c9 3e 67 3f e0 d9 81 3f c8 a0 5e 3f
       1.1392498 0.9033018 1.0144615 0.8696408
000020 10 f1 74 3f fc e6 6c 3f 43 5b 91 3f f4 23 6b 3f
       0.9568033 0.92539954 1.1355976 0.91851735
000030 4f fb 69 3f 11 e8 87 3f 1b 98 8f 3f 73 cd 6c 3f
       0.9139909 1.0617696 1.1218294 0.9250099
000040 b6 b7 84 3f 15 52 59 3f f1 f3 91 3f bc 46 5e 3f
       1.0368564 0.8489087 1.140257 0.8682668
000050 95 30 86 3f 15 d2 67 3f fa c6 66 3f d3 f4 89 3f
       1.0483576 0.90554935 0.90147364 1.077784
000060 81 70 7e 3f 52 ba 8c 3f 03 a0 58 3f 0b ad 44 3f
       0.9939042 1.099436 0.8461916 0.7682654
000070 ba 99 80 3f 1f 4b 83 3f 06 c8 83 3f 57 22 7f 3f
       1.0046914 1.02573 1.0295417 0.99661773

predictionFunction.resBlocks.1.bn1.bias f4 [32]
000000 51 dc aa be b6 4b c0 be fa 6e aa be 50 3b 92 be
       -0.33371213 -0.37557763 -0.33287793 -0.28560877
000010 80 5a 1a be 23 f0 c9 be 16 d7 ed bd 5e b2 aa be
       -0.15073586 -0.39441022 -0.1161329 -0.33339208
000020 0c 78 e8 be 12 b0 08 bf 3f e0 6a be 33 4b d4 be
       -0.45404088 -0.5339366 -0.22937106 -0.41463622
000030 e4 f9 04 bf 2c b8 dd be bc 21 b7 be ce 7c 2f be
       -0.519438 -0.43304574 -0.35767925 -0.17137453
000040 9e b9 99 be 31 8d 30 be b4 d6 9a bb 4c 41 85 be
       -0.30024427 -0.1724136 -0.0047253016 -0.2602638
000050 3d 72 16 bd 55 a4 e4 be b2 21 7f be a7 00 47 be
       -0.03673004 -0.44656625 -0.24915197 -0.19433843
000060 86 8a a0 bd fc 30 d5 bd c6 47 b8 be 94 1e 8c be
       -0.07838921 -0.10409734 -0.3599226 -0.2736708
000070 a9 8f 27 be 06 96 db be da a6 96 be 52 44 42 be
       -0.16363396 -0.42887896 -0.29424173 -0.18971375

predictionFunction.resBlocks.1.bn1.running_mean f4 [32]
000000 d5 99 85 bf 3d 6c bc c0 39 54 4f c0 8c 75 9a c0
       -1.0437571 -5.8882127 -3.2395155 -4.826849
000010 02 85 b0 c0 44 79 63 c0 71 e5 d8 bf fb c4 77 c0
       -5.5162363 -3.5542765 -1.694502 -3.8713977
000020 80 fc 4b c0 d7 5d 40 c0 e5 24 b6 c0 2b a5 d1 3e
       -3.1872864 -3.0057275 -5.6920037 0.40946326
000030 83 59 2a c0 c6 9a 56 c0 0d 89 42 c0 39 e6 a2 c0
       -2.6617134 -3.3531966 -3.039615 -5.0906034
000040 2f 4e ac be 28 2f f2 be 77 d4 e3 c0 2a 53 0c bf
       -0.336534 -0.47301602 -7.1196856 -0.548144
000050 b9 aa 51 c0 1f b4 09 c0 ee b5 af c0 91 19 0f c1
       -3.276045 -2.1516187 -5.490958 -8.943742
000060 21 35 72 c0 73 d5 78 c0 b2 c5 dd be 33 2c d0 c0
       -3.7844927 -3.888028 -0.43314892 -6.5053954
000070 8b ff 7e c0 ed 65 8c 40 53 a4 5f c0 c3 6d 55 c0
       -3.984347 4.387442 -3.4944046 -3.3348243

predictionFunction.resBlocks.1.bn1.running_var f4 [32]
000000 35 c3 88 41 85 61 8a 41 d9 16 70 41 0a cc 9c 41
       17.095316 17.297617 15.005578 19.599628
000010 bf e9 b3 41 42 e5 97 41 5e 63 56 41 b2 e3 83 41
       22.489134 18.986942 13.39926 16.48618
000020 98 62 88 41 37 1c 37 41 ec f6 46 41 8a d4 7d 41
       17.048141 11.444388 12.435284 15.864389
000030 b0 17 54 41 53 a9 86 41 a5 c8 46 41 ad 66 b1 41
       13.255783 16.832678 12.4239855 22.175135
000040 4d a2 2f 41 7f 6d d3 41 36 83 a4 41 df 5f 8d 41
       10.977124 26.428465 20.564068 17.671812
000050 9a 52 a8 41 9a 09 85 41 a0 58 9f 41 d7 d0 c2 41
       21.040333 16.629688 19.918274 24.351973
000060 ec 0c 88 41 aa 86 9a 41 dd 2d fe 40 92 6f bd 41
       17.00631 19.315754 7.9430985 23.679478
000070 c6 8b 5a 41 a5 9a 8e 41 f9 46 56 41 b3 7f 58 41
       13.659124 17.82551 13.392327 13.531177

predictionFunction.resBlocks.1.conv2.weight f4 [32, 32, 3, 3]
000000 2b 41 90 3d f2 31 1d 3d 32 87 2b bb 66 3b fb bd
       0.0704368 0.03837771 -0.0026173112 -0.12267189
000010 d3 3d e4 3b 11 35 7a bc c4 00 fd bd 25 b6 73 3e
       0.006965378 -0.015271441 -0.12353662 0.23799951
000020 6a fb 28 bc 98 e2 79 3d 85 b0 96 be 50 b4 22 3e
       -0.010313848 0.061007112 -0.2943155 0.15889096
000030 df 34 24 3e 50 4f cf bd 0e 5e cb 3d 5a b3 95 bd
       0.16035794 -0.101225495 0.09930049 -0.07309599
000040 fd 89 74 be 70 48 d5 bd 71 37 99 bd 9b a6 02 3c
       -0.23880763 -0.10414207 -0.07481278 0.007974292
000050 92 58 ec bd dd 6e 32 3e 04 88 16 3e 31 5f 6a be
       -0.11540331 0.17425103 0.14700323 -0.22887875
000060 f7 18 0e 3d 33 f3 d3 3d 7a 54 40 3d 03 60 91 3d
       0.034691777 0.10349121 0.046955563 0.07098391
000070 ce 5e 10 3d cb 1f cd be ac 1f cc 3d 4e 9f a6 3d
       0.035246663 -0.4006332 0.099669784 0.08135854
000080 5b b6 88 3e 97 13 28 3d a8 5c 2b 3d 99 35 88 3d
       0.26701626 0.041034307 0.04183641 0.06650848
000090 bc f1 0f be 04 e8 85 3d df 1b 75 3e b2 1e 84 3d
       -0.14057058 0.06538394 0.23936413 0.06451167
0000a0 21 91 8d 3c 80 65 10 be 2b 51 9f 3d dd e6 ec 3c
       0.017281117 -0.14101219 0.077791534 0.028918678
0000b0 10 3d 1a be ea 42 15 ba 15 4d 02 3e 4b 16 af 3e
       -0.15062356 -0.000569387 0.12724717 0.34196696
0000c0 46 ff 34 3e e6 44 c6 bd 5a ea 31 3e 0f 7d 02 3e
       0.17675504 -0.0968111 0.17374554 0.12743019
0000d0 6d 5f c8 bc 11 e4 4d 3d eb 4b c8 bd e3 18 36 3c
       -0.024459565 0.05026633 -0.09780105 0.011114332
0000e0 83 d6 0d 3d 8a 74 cf bd 10 20 15 3e 37 ab a1 bd
       0.034628402 -0.1012965 0.14563012 -0.07893985
0000f0 e8 b6 c6 bd 6d c9 2d 3e 95 55 36 3e 4f 47 9c 3d
       -0.09702855 0.16971369 0.17806084 0.076307885
000100 18 c8 ea 39 ea ff 47 be f6 69 a6 3e 4e 4d 86 3e
       0.0004478104 -0.19531217 0.32502717 0.26230854
000110 4f 30 55 3e 0c ef 53 3d 22 64 a7 bd 54 05 33 3c
       0.2081921 0.051741645 -0.08173396 0.010926563
000120 6b a7 6b be 21 96 32 be 71 b2 8b 3e 85 16 15 be
       -0.23013084 -0.17440082 0.27284577 -0.14559372
000130 01 5c 0c 3e f7 dc 8b 3d f2 86 d6 bd 8d ec 10 3c
       0.13706972 0.06829255 -0.104749575 0.008845461
000140 c9 4a 60 bd ef c2 31 3d 51 a1 2a be 72 01 21 3e
       -0.05475882 0.043398794 -0.166631 0.15723208
000150 e4 32 08 3e b5 cf 79 3d f3 aa 65 be 27 41 57 bd
       0.13300663 0.0609891 -0.22428493 -0.05255237
000160 bf 38 7b be eb 55 40 3d 68 40 3e 3e 86 1a aa 3d
       -0.24533366 0.046956938 0.18579257 0.0830584
000170 69 f9 00 be 90 4a 76 be 9c f0 50 be 58 55 6c bc
       -0.12595142 -0.24051881 -0.20404285 -0.014424644
000180 d3 29 9c 3b c2 fc 66 be a0 67 54 bd 99 30 87 be
       0.004765728 -0.22557357 -0.051856637 -0.26404265
000190 22 3b 05 3d fa 3b 60 3d e5 d2 cd be 34 8f 6e 3d
       0.032527097 0.054744698 -0.40199962 0.058242038
0001a0 aa 36 bc 3d ee 37 9e be d3 fe 58 be 21 80 ba 3c
       0.09190114 -0.30902046 -0.21190958 0.022766175
0001b0 3e cb 3a 3d 9c 94 4a 3d 4e 29 fb 3c 78 f3 99 be
       0.045603983 0.04945813 0.030659344 -0.30068564
0001c0 85 0e 4e be b0 b6 6b 3e 70 8d f6 bd 5c ed 2f be
       -0.20122726 0.23018909 -0.12038696 -0.17180389
0001d0 c5 c9 2f 3e 33 1a 20 be ad 59 b9 bd 9f 42 62 bb
       0.17166813 -0.15634994 -0.090503074 -0.0034524573
0001e0 56 98 fc 3c b1 3e 5f bc c4 3b 82 3e e3 32 85 be
       0.030834358 -0.013625787 0.25436223 -0.26015386
0001f0 71 60 ec 3d 8a 75 95 bd e7 5e c4 be 4a 93 10 be
       0.11541832 -0.072978094 -0.38353655 -0.14118686
000200 42 e7 79 bd c0 75 53 3b 7d 8c 05 3e b4 db 9c bc
       -0.06101156 0.003226623 0.13041873 -0.019147731
000210 cf 46 00 be 4b 16 aa 3c 3a 5e 38 3d bd d9 12 3e
       -0.12527011 0.020762583 0.045011736 0.14340873
000220 5e bf a6 3e 56 3d 9d bd 7d 16 e0 3d 5d 1e a7 3d
       0.32567877 -0.076777145 0.10941789 0.08160088
000230 03 64 f6 3d 21 57 65 3e 69 e4 93 3e a6 ba a4 bb
       0.120307945 0.22396518 0.288852 -0.005027133
000240 8d e7 52 be ad da 48 ba 2a a9 eb bd c3 c3 14 bd
       -0.20596142 -0.000766198 -0.11506875 -0.036319505
000250 5a 68 12 3d ff e3 72 be f1 b6 d7 bd 86 a6 83 bd
       0.03574405 -0.23719786 -0.1053294 -0.06428246
000260 c9 de b7 3d 9d 1e b5 3d ef fa 8f 3d 13 39 54 be
       0.0897804 0.0884373 0.07030284 -0.20724897
000270 67 bc 06 bd 77 40 58 3d 77 29 89 bd 5f 32 28 3d
       -0.03289452 0.052795853 -0.06697362 0.041063663
000280 ff 17 14 3e cb c1 9c bd 92 9d c5 3b 59 5a 0a be
       0.14462279 -0.076541506 0.0060307467 -0.13511027
000290 0e ef cd 3d b2 ce be 3d 5b 45 9c 3d 6e 83 81 3e
       0.10055362 0.09316768 0.07630416 0.25295585
0002a0 f1 42 a5 3d f7 f7 5e 3e 2f f2 e8 3e 9e e6 c5 bd
       0.08069409 0.21774279 0.4549727 -0.09663127
0002b0 ef 28 05 3e 3a 08 9c 3e fc c5 61 3e f0 81 93 3e
       0.13003896 0.30475026 0.22048181 0.28810072
0002c0 e7 d8 b6 3d cd d9 29 be 7a b4 25 3e f3 ba f3 3d
       0.089280896 -0.1658699 0.16182128 0.11900892
0002d0 b3 ba 05 3d 15 0a 0c 3d ed c4 91 3e 08 21 bb 3d
       0.032648753 0.034189302 0.28470555 0.091371596
0002e0 47 58 96 bd de b6 a0 3c 1f f5 6c be 78 04 29 3d
       -0.07341056 0.019618448 -0.23140381 0.041264027
0002f0 15 f9 97 bd 65 b6 4d 3e ed 59 e1 bd 11 36 1a be
       -0.074205555 0.20089109 -0.1100348 -0.15059687
000300 31 13 6c 3e 2f 66 dd bd 81 f7 02 be 13 fe 44 3d
       0.23054196 -0.108105056 -0.12789728 0.048093867
000310 d3 5c 11 bd 51 3f 0d 3d f1 e9 63 3d ea bd 5e 3e
       -0.035488915 0.03448421 0.055643026 0.21752134
000320 8a 9e 28 bd e8 1e 21 3d c1 34 06 3c f7 1a 8b bd
       -0.04116682 0.039336115 0.008191288 -0.067922525
000330 ea 35 f9 bd 8e 5a 92 3d 9a b6 9c 3d 93 12 95 3c
       -0.121684864 0.07146178 0.07652016 0.018197333
000340 ca b9 69 bd 4e 46 e2 bd 70 12 8f 3d 5f e1 43 bd
       -0.057061948 -0.11048566 0.069859385 -0.047822352
000350 f1 29 45 bd eb 34 37 3e a0 04 0e bd ad 51 02 3e
       -0.0481357 0.1789128 -0.03467238 0.1272647
000360 53 77 dc 3d 16 5e 11 be ec b7 6d be 84 be 87 3d
       0.10764947 -0.14196047 -0.23214692 0.06628135
000370 27 86 c9 3d dd 2e 20 3d fa 47 22 3e 0b 55 6e 3e
       0.09840041 0.039107192 0.1584777 0.23274629
000380 15 0e 9f bd 82 2d 73 3d 15 2d 29 3d 47 60 f9 3c
       -0.07766358 0.05936957 0.04130276 0.030441416
000390 04 6b 99 bd 1f f2 3f bd 6c f4 ce 3c ad 2d 74 3e
       -0.07491115 -0.046861764 0.025263034 0.23845549
0003a0 66 c7 e4 3d b0 94 fd 3d bf 1d 90 be dc 6f 05 3e
       0.11170845 0.123818755 -0.28147694 0.13030952
0003b0 37 5e 16 be 87 3f 03 3e 51 4a 03 bd 19 5b 2a bd
       -0.14684378 0.12817203 -0.032053296 -0.041590784
0003c0 51 e0 d7 3d 06 31 2a 3c 75 75 5b be bd 9c 1a 3e
       0.10540832 0.010387665 -0.21431525 0.15098853
0003d0 01 8d 46 3d 4e 41 36 3e 73 9b ff 3c cc aa 77 3d
       0.048474316 0.1779835 0.031202054 0.06046562
0003e0 80 af 9c 3e 85 b3 43 be d2 8f dc bc 71 cd a5 3c
       0.30602646 -0.1911145 -0.026924048 0.020239564
0003f0 17 03 b7 3d a8 5b 4e be cd 86 29 3c b6 41 ef 3d
       0.08936136 -0.20152152 0.01034708 0.11682455

predictionFunction.resBlocks.1.bn2.weight f4 [32]
000000 b9 b6 53 3f 05 14 76 3f ab e1 6d 3f 41 24 7e 3f
       0.8270069 0.961243 0.92922467 0.9927407
000010 5a c5 90 3f 36 2a 73 3f ef d0 63 3f 31 83 43 3f
       1.1310227 0.94986284 0.8899068 0.7637206
000020 78 fd 8a 3f 79 f9 7f 3f 52 96 79 3f 16 f8 75 3f
       1.0858603 0.9999004 0.97494996 0.96081674
000030 aa 97 85 3f 25 d6 96 3f 01 8d a6 3f d6 25 8b 3f
       1.0436909 1.1784102 1.3011781 1.0870922
000040 b7 15 7b 3f c8 6a 92 3f a6 8e 8e 3f 67 b7 5a 3f
       0.9808001 1.1438837 1.1137283 0.854361
000050 72 57 78 3f 60 e4 61 3f 93 3b 8c 3f 11 0f 93 3f
       0.9700843 0.882391 1.0955681 1.1488973
000060 34 2c 5f 3f 87 52 66 3f ce 75 60 3f 81 14 80 3f
       0.87176824 0.89969677 0.87679756 1.0006257
000070 c6 72 8e 3f 4a 64 84 3f 5b 4f 4e 3f 50 0f 8e 3f
       1.1128776 1.0343106 0.80589837 1.1098423
